{"format": "graph-model", "generatedBy": "2.5.0", "convertedBy": "TensorFlow.js Converter v3.0.0", "signature": {"inputs": {"inputs:0": {"name": "inputs:0", "dtype": "DT_FLOAT", "tensorShape": {"dim": [{"size": "-1"}, {"size": "224"}, {"size": "224"}, {"size": "3"}]}}}, "outputs": {"Identity:0": {"name": "Identity:0", "dtype": "DT_FLOAT", "tensorShape": {"dim": [{"size": "-1"}, {"size": "1001"}]}}}}, "modelTopology": {"node": [{"name": "inputs", "op": "Placeholder", "attr": {"shape": {"shape": {"dim": [{"size": "-1"}, {"size": "224"}, {"size": "224"}, {"size": "3"}]}}, "dtype": {"type": "DT_FLOAT"}}}, {"name": "StatefulPartitionedCall/StatefulPartitionedCall/predict/MobilenetV3/Conv/Conv2D_weights", "op": "Const", "attr": {"value": {"tensor": {"dtype": "DT_FLOAT", "tensorShape": {"dim": [{"size": "3"}, {"size": "3"}, {"size": "3"}, {"size": "16"}]}}}, "dtype": {"type": "DT_FLOAT"}}}, {"name": "StatefulPartitionedCall/StatefulPartitionedCall/predict/MobilenetV3/Conv/Conv2D_bn_offset", "op": "Const", "attr": {"dtype": {"type": "DT_FLOAT"}, "value": {"tensor": {"dtype": "DT_FLOAT", "tensorShape": {"dim": [{"size": "16"}]}}}}}, {"name": "StatefulPartitionedCall/StatefulPartitionedCall/predict/MobilenetV3/expanded_conv/depthwise/depthwise_weights", "op": "Const", "attr": {"value": {"tensor": {"dtype": "DT_FLOAT", "tensorShape": {"dim": [{"size": "3"}, {"size": "3"}, {"size": "16"}, {"size": "1"}]}}}, "dtype": {"type": "DT_FLOAT"}}}, {"name": "StatefulPartitionedCall/StatefulPartitionedCall/predict/MobilenetV3/expanded_conv/depthwise/depthwise_bn_offset", "op": "Const", "attr": {"value": {"tensor": {"dtype": "DT_FLOAT", "tensorShape": {"dim": [{"size": "16"}]}}}, "dtype": {"type": "DT_FLOAT"}}}, {"name": "StatefulPartitionedCall/StatefulPartitionedCall/predict/MobilenetV3/expanded_conv/project/Conv2D_weights", "op": "Const", "attr": {"dtype": {"type": "DT_FLOAT"}, "value": {"tensor": {"dtype": "DT_FLOAT", "tensorShape": {"dim": [{"size": "1"}, {"size": "1"}, {"size": "16"}, {"size": "16"}]}}}}}, {"name": "StatefulPartitionedCall/StatefulPartitionedCall/predict/MobilenetV3/expanded_conv/project/Conv2D_bn_offset", "op": "Const", "attr": {"dtype": {"type": "DT_FLOAT"}, "value": {"tensor": {"dtype": "DT_FLOAT", "tensorShape": {"dim": [{"size": "16"}]}}}}}, {"name": "StatefulPartitionedCall/StatefulPartitionedCall/predict/MobilenetV3/expanded_conv_1/expand/Conv2D_weights", "op": "Const", "attr": {"dtype": {"type": "DT_FLOAT"}, "value": {"tensor": {"dtype": "DT_FLOAT", "tensorShape": {"dim": [{"size": "1"}, {"size": "1"}, {"size": "16"}, {"size": "64"}]}}}}}, {"name": "StatefulPartitionedCall/StatefulPartitionedCall/predict/MobilenetV3/expanded_conv_1/expand/Conv2D_bn_offset", "op": "Const", "attr": {"dtype": {"type": "DT_FLOAT"}, "value": {"tensor": {"dtype": "DT_FLOAT", "tensorShape": {"dim": [{"size": "64"}]}}}}}, {"name": "StatefulPartitionedCall/StatefulPartitionedCall/predict/MobilenetV3/expanded_conv_1/depthwise/depthwise_weights", "op": "Const", "attr": {"value": {"tensor": {"dtype": "DT_FLOAT", "tensorShape": {"dim": [{"size": "3"}, {"size": "3"}, {"size": "64"}, {"size": "1"}]}}}, "dtype": {"type": "DT_FLOAT"}}}, {"name": "StatefulPartitionedCall/StatefulPartitionedCall/predict/MobilenetV3/expanded_conv_1/depthwise/depthwise_bn_offset", "op": "Const", "attr": {"value": {"tensor": {"dtype": "DT_FLOAT", "tensorShape": {"dim": [{"size": "64"}]}}}, "dtype": {"type": "DT_FLOAT"}}}, {"name": "StatefulPartitionedCall/StatefulPartitionedCall/predict/MobilenetV3/expanded_conv_1/project/Conv2D_weights", "op": "Const", "attr": {"value": {"tensor": {"dtype": "DT_FLOAT", "tensorShape": {"dim": [{"size": "1"}, {"size": "1"}, {"size": "64"}, {"size": "24"}]}}}, "dtype": {"type": "DT_FLOAT"}}}, {"name": "StatefulPartitionedCall/StatefulPartitionedCall/predict/MobilenetV3/expanded_conv_1/project/Conv2D_bn_offset", "op": "Const", "attr": {"dtype": {"type": "DT_FLOAT"}, "value": {"tensor": {"dtype": "DT_FLOAT", "tensorShape": {"dim": [{"size": "24"}]}}}}}, {"name": "StatefulPartitionedCall/StatefulPartitionedCall/predict/MobilenetV3/expanded_conv_2/expand/Conv2D_weights", "op": "Const", "attr": {"dtype": {"type": "DT_FLOAT"}, "value": {"tensor": {"dtype": "DT_FLOAT", "tensorShape": {"dim": [{"size": "1"}, {"size": "1"}, {"size": "24"}, {"size": "72"}]}}}}}, {"name": "StatefulPartitionedCall/StatefulPartitionedCall/predict/MobilenetV3/expanded_conv_2/expand/Conv2D_bn_offset", "op": "Const", "attr": {"value": {"tensor": {"dtype": "DT_FLOAT", "tensorShape": {"dim": [{"size": "72"}]}}}, "dtype": {"type": "DT_FLOAT"}}}, {"name": "StatefulPartitionedCall/StatefulPartitionedCall/predict/MobilenetV3/expanded_conv_13/project/Conv2D_weights", "op": "Const", "attr": {"dtype": {"type": "DT_FLOAT"}, "value": {"tensor": {"dtype": "DT_FLOAT", "tensorShape": {"dim": [{"size": "1"}, {"size": "1"}, {"size": "960"}, {"size": "160"}]}}}}}, {"name": "StatefulPartitionedCall/StatefulPartitionedCall/predict/MobilenetV3/expanded_conv_2/depthwise/depthwise_weights", "op": "Const", "attr": {"dtype": {"type": "DT_FLOAT"}, "value": {"tensor": {"dtype": "DT_FLOAT", "tensorShape": {"dim": [{"size": "3"}, {"size": "3"}, {"size": "72"}, {"size": "1"}]}}}}}, {"name": "StatefulPartitionedCall/StatefulPartitionedCall/predict/MobilenetV3/expanded_conv_2/depthwise/depthwise_bn_offset", "op": "Const", "attr": {"dtype": {"type": "DT_FLOAT"}, "value": {"tensor": {"dtype": "DT_FLOAT", "tensorShape": {"dim": [{"size": "72"}]}}}}}, {"name": "StatefulPartitionedCall/StatefulPartitionedCall/predict/MobilenetV3/expanded_conv_2/project/Conv2D_weights", "op": "Const", "attr": {"dtype": {"type": "DT_FLOAT"}, "value": {"tensor": {"dtype": "DT_FLOAT", "tensorShape": {"dim": [{"size": "1"}, {"size": "1"}, {"size": "72"}, {"size": "24"}]}}}}}, {"name": "StatefulPartitionedCall/StatefulPartitionedCall/predict/MobilenetV3/expanded_conv_2/project/Conv2D_bn_offset", "op": "Const", "attr": {"dtype": {"type": "DT_FLOAT"}, "value": {"tensor": {"dtype": "DT_FLOAT", "tensorShape": {"dim": [{"size": "24"}]}}}}}, {"name": "StatefulPartitionedCall/StatefulPartitionedCall/predict/MobilenetV3/expanded_conv_3/expand/Conv2D_weights", "op": "Const", "attr": {"dtype": {"type": "DT_FLOAT"}, "value": {"tensor": {"dtype": "DT_FLOAT", "tensorShape": {"dim": [{"size": "1"}, {"size": "1"}, {"size": "24"}, {"size": "72"}]}}}}}, {"name": "StatefulPartitionedCall/StatefulPartitionedCall/predict/MobilenetV3/expanded_conv_13/project/Conv2D_bn_offset", "op": "Const", "attr": {"value": {"tensor": {"dtype": "DT_FLOAT", "tensorShape": {"dim": [{"size": "160"}]}}}, "dtype": {"type": "DT_FLOAT"}}}, {"name": "StatefulPartitionedCall/StatefulPartitionedCall/predict/MobilenetV3/expanded_conv_3/expand/Conv2D_bn_offset", "op": "Const", "attr": {"value": {"tensor": {"dtype": "DT_FLOAT", "tensorShape": {"dim": [{"size": "72"}]}}}, "dtype": {"type": "DT_FLOAT"}}}, {"name": "StatefulPartitionedCall/StatefulPartitionedCall/predict/MobilenetV3/expanded_conv_3/depthwise/depthwise_weights", "op": "Const", "attr": {"value": {"tensor": {"dtype": "DT_FLOAT", "tensorShape": {"dim": [{"size": "5"}, {"size": "5"}, {"size": "72"}, {"size": "1"}]}}}, "dtype": {"type": "DT_FLOAT"}}}, {"name": "StatefulPartitionedCall/StatefulPartitionedCall/predict/MobilenetV3/expanded_conv_3/depthwise/depthwise_bn_offset", "op": "Const", "attr": {"dtype": {"type": "DT_FLOAT"}, "value": {"tensor": {"dtype": "DT_FLOAT", "tensorShape": {"dim": [{"size": "72"}]}}}}}, {"name": "StatefulPartitionedCall/StatefulPartitionedCall/predict/MobilenetV3/expanded_conv_14/expand/Conv2D_weights", "op": "Const", "attr": {"value": {"tensor": {"dtype": "DT_FLOAT", "tensorShape": {"dim": [{"size": "1"}, {"size": "1"}, {"size": "160"}, {"size": "960"}]}}}, "dtype": {"type": "DT_FLOAT"}}}, {"name": "StatefulPartitionedCall/StatefulPartitionedCall/predict/MobilenetV3/expanded_conv_3/project/Conv2D_weights", "op": "Const", "attr": {"dtype": {"type": "DT_FLOAT"}, "value": {"tensor": {"dtype": "DT_FLOAT", "tensorShape": {"dim": [{"size": "1"}, {"size": "1"}, {"size": "72"}, {"size": "40"}]}}}}}, {"name": "StatefulPartitionedCall/StatefulPartitionedCall/predict/MobilenetV3/expanded_conv_14/expand/Conv2D_bn_offset", "op": "Const", "attr": {"value": {"tensor": {"dtype": "DT_FLOAT", "tensorShape": {"dim": [{"size": "960"}]}}}, "dtype": {"type": "DT_FLOAT"}}}, {"name": "StatefulPartitionedCall/StatefulPartitionedCall/predict/MobilenetV3/expanded_conv_3/project/Conv2D_bn_offset", "op": "Const", "attr": {"value": {"tensor": {"dtype": "DT_FLOAT", "tensorShape": {"dim": [{"size": "40"}]}}}, "dtype": {"type": "DT_FLOAT"}}}, {"name": "StatefulPartitionedCall/StatefulPartitionedCall/predict/MobilenetV3/expanded_conv_4/expand/Conv2D_weights", "op": "Const", "attr": {"value": {"tensor": {"dtype": "DT_FLOAT", "tensorShape": {"dim": [{"size": "1"}, {"size": "1"}, {"size": "40"}, {"size": "120"}]}}}, "dtype": {"type": "DT_FLOAT"}}}, {"name": "StatefulPartitionedCall/StatefulPartitionedCall/predict/MobilenetV3/expanded_conv_4/expand/Conv2D_bn_offset", "op": "Const", "attr": {"value": {"tensor": {"dtype": "DT_FLOAT", "tensorShape": {"dim": [{"size": "120"}]}}}, "dtype": {"type": "DT_FLOAT"}}}, {"name": "StatefulPartitionedCall/StatefulPartitionedCall/predict/MobilenetV3/expanded_conv_4/depthwise/depthwise_weights", "op": "Const", "attr": {"dtype": {"type": "DT_FLOAT"}, "value": {"tensor": {"dtype": "DT_FLOAT", "tensorShape": {"dim": [{"size": "5"}, {"size": "5"}, {"size": "120"}, {"size": "1"}]}}}}}, {"name": "StatefulPartitionedCall/StatefulPartitionedCall/predict/MobilenetV3/expanded_conv_4/depthwise/depthwise_bn_offset", "op": "Const", "attr": {"dtype": {"type": "DT_FLOAT"}, "value": {"tensor": {"dtype": "DT_FLOAT", "tensorShape": {"dim": [{"size": "120"}]}}}}}, {"name": "StatefulPartitionedCall/StatefulPartitionedCall/predict/MobilenetV3/expanded_conv_4/project/Conv2D_weights", "op": "Const", "attr": {"value": {"tensor": {"dtype": "DT_FLOAT", "tensorShape": {"dim": [{"size": "1"}, {"size": "1"}, {"size": "120"}, {"size": "40"}]}}}, "dtype": {"type": "DT_FLOAT"}}}, {"name": "StatefulPartitionedCall/StatefulPartitionedCall/predict/MobilenetV3/expanded_conv_14/depthwise/depthwise_weights", "op": "Const", "attr": {"dtype": {"type": "DT_FLOAT"}, "value": {"tensor": {"dtype": "DT_FLOAT", "tensorShape": {"dim": [{"size": "5"}, {"size": "5"}, {"size": "960"}, {"size": "1"}]}}}}}, {"name": "StatefulPartitionedCall/StatefulPartitionedCall/predict/MobilenetV3/expanded_conv_4/project/Conv2D_bn_offset", "op": "Const", "attr": {"value": {"tensor": {"dtype": "DT_FLOAT", "tensorShape": {"dim": [{"size": "40"}]}}}, "dtype": {"type": "DT_FLOAT"}}}, {"name": "StatefulPartitionedCall/StatefulPartitionedCall/predict/MobilenetV3/expanded_conv_5/expand/Conv2D_weights", "op": "Const", "attr": {"dtype": {"type": "DT_FLOAT"}, "value": {"tensor": {"dtype": "DT_FLOAT", "tensorShape": {"dim": [{"size": "1"}, {"size": "1"}, {"size": "40"}, {"size": "120"}]}}}}}, {"name": "StatefulPartitionedCall/StatefulPartitionedCall/predict/MobilenetV3/expanded_conv_5/expand/Conv2D_bn_offset", "op": "Const", "attr": {"value": {"tensor": {"dtype": "DT_FLOAT", "tensorShape": {"dim": [{"size": "120"}]}}}, "dtype": {"type": "DT_FLOAT"}}}, {"name": "StatefulPartitionedCall/StatefulPartitionedCall/predict/MobilenetV3/expanded_conv_14/depthwise/depthwise_bn_offset", "op": "Const", "attr": {"dtype": {"type": "DT_FLOAT"}, "value": {"tensor": {"dtype": "DT_FLOAT", "tensorShape": {"dim": [{"size": "960"}]}}}}}, {"name": "StatefulPartitionedCall/StatefulPartitionedCall/predict/MobilenetV3/expanded_conv_5/depthwise/depthwise_weights", "op": "Const", "attr": {"value": {"tensor": {"dtype": "DT_FLOAT", "tensorShape": {"dim": [{"size": "5"}, {"size": "5"}, {"size": "120"}, {"size": "1"}]}}}, "dtype": {"type": "DT_FLOAT"}}}, {"name": "StatefulPartitionedCall/StatefulPartitionedCall/predict/MobilenetV3/expanded_conv_5/depthwise/depthwise_bn_offset", "op": "Const", "attr": {"value": {"tensor": {"dtype": "DT_FLOAT", "tensorShape": {"dim": [{"size": "120"}]}}}, "dtype": {"type": "DT_FLOAT"}}}, {"name": "StatefulPartitionedCall/StatefulPartitionedCall/predict/MobilenetV3/expanded_conv_5/project/Conv2D_weights", "op": "Const", "attr": {"dtype": {"type": "DT_FLOAT"}, "value": {"tensor": {"dtype": "DT_FLOAT", "tensorShape": {"dim": [{"size": "1"}, {"size": "1"}, {"size": "120"}, {"size": "40"}]}}}}}, {"name": "StatefulPartitionedCall/StatefulPartitionedCall/predict/MobilenetV3/expanded_conv_5/project/Conv2D_bn_offset", "op": "Const", "attr": {"dtype": {"type": "DT_FLOAT"}, "value": {"tensor": {"dtype": "DT_FLOAT", "tensorShape": {"dim": [{"size": "40"}]}}}}}, {"name": "StatefulPartitionedCall/StatefulPartitionedCall/predict/MobilenetV3/expanded_conv_6/expand/Conv2D_weights", "op": "Const", "attr": {"value": {"tensor": {"dtype": "DT_FLOAT", "tensorShape": {"dim": [{"size": "1"}, {"size": "1"}, {"size": "40"}, {"size": "240"}]}}}, "dtype": {"type": "DT_FLOAT"}}}, {"name": "StatefulPartitionedCall/StatefulPartitionedCall/predict/MobilenetV3/expanded_conv_6/expand/Conv2D_bn_offset", "op": "Const", "attr": {"value": {"tensor": {"dtype": "DT_FLOAT", "tensorShape": {"dim": [{"size": "240"}]}}}, "dtype": {"type": "DT_FLOAT"}}}, {"name": "StatefulPartitionedCall/StatefulPartitionedCall/predict/MobilenetV3/expanded_conv_6/depthwise/depthwise_weights", "op": "Const", "attr": {"value": {"tensor": {"dtype": "DT_FLOAT", "tensorShape": {"dim": [{"size": "3"}, {"size": "3"}, {"size": "240"}, {"size": "1"}]}}}, "dtype": {"type": "DT_FLOAT"}}}, {"name": "StatefulPartitionedCall/StatefulPartitionedCall/predict/MobilenetV3/expanded_conv_6/depthwise/depthwise_bn_offset", "op": "Const", "attr": {"value": {"tensor": {"dtype": "DT_FLOAT", "tensorShape": {"dim": [{"size": "240"}]}}}, "dtype": {"type": "DT_FLOAT"}}}, {"name": "StatefulPartitionedCall/StatefulPartitionedCall/predict/MobilenetV3/expanded_conv_6/project/Conv2D_weights", "op": "Const", "attr": {"dtype": {"type": "DT_FLOAT"}, "value": {"tensor": {"dtype": "DT_FLOAT", "tensorShape": {"dim": [{"size": "1"}, {"size": "1"}, {"size": "240"}, {"size": "80"}]}}}}}, {"name": "StatefulPartitionedCall/StatefulPartitionedCall/predict/MobilenetV3/expanded_conv_6/project/Conv2D_bn_offset", "op": "Const", "attr": {"value": {"tensor": {"dtype": "DT_FLOAT", "tensorShape": {"dim": [{"size": "80"}]}}}, "dtype": {"type": "DT_FLOAT"}}}, {"name": "StatefulPartitionedCall/StatefulPartitionedCall/predict/MobilenetV3/expanded_conv_7/expand/Conv2D_weights", "op": "Const", "attr": {"dtype": {"type": "DT_FLOAT"}, "value": {"tensor": {"dtype": "DT_FLOAT", "tensorShape": {"dim": [{"size": "1"}, {"size": "1"}, {"size": "80"}, {"size": "200"}]}}}}}, {"name": "StatefulPartitionedCall/StatefulPartitionedCall/predict/MobilenetV3/expanded_conv_7/expand/Conv2D_bn_offset", "op": "Const", "attr": {"value": {"tensor": {"dtype": "DT_FLOAT", "tensorShape": {"dim": [{"size": "200"}]}}}, "dtype": {"type": "DT_FLOAT"}}}, {"name": "StatefulPartitionedCall/StatefulPartitionedCall/predict/MobilenetV3/expanded_conv_7/depthwise/depthwise_weights", "op": "Const", "attr": {"dtype": {"type": "DT_FLOAT"}, "value": {"tensor": {"dtype": "DT_FLOAT", "tensorShape": {"dim": [{"size": "3"}, {"size": "3"}, {"size": "200"}, {"size": "1"}]}}}}}, {"name": "StatefulPartitionedCall/StatefulPartitionedCall/predict/MobilenetV3/expanded_conv_7/depthwise/depthwise_bn_offset", "op": "Const", "attr": {"dtype": {"type": "DT_FLOAT"}, "value": {"tensor": {"dtype": "DT_FLOAT", "tensorShape": {"dim": [{"size": "200"}]}}}}}, {"name": "StatefulPartitionedCall/StatefulPartitionedCall/predict/MobilenetV3/expanded_conv_7/project/Conv2D_weights", "op": "Const", "attr": {"dtype": {"type": "DT_FLOAT"}, "value": {"tensor": {"dtype": "DT_FLOAT", "tensorShape": {"dim": [{"size": "1"}, {"size": "1"}, {"size": "200"}, {"size": "80"}]}}}}}, {"name": "StatefulPartitionedCall/StatefulPartitionedCall/predict/MobilenetV3/expanded_conv_7/project/Conv2D_bn_offset", "op": "Const", "attr": {"value": {"tensor": {"dtype": "DT_FLOAT", "tensorShape": {"dim": [{"size": "80"}]}}}, "dtype": {"type": "DT_FLOAT"}}}, {"name": "StatefulPartitionedCall/StatefulPartitionedCall/predict/MobilenetV3/expanded_conv_8/expand/Conv2D_weights", "op": "Const", "attr": {"value": {"tensor": {"dtype": "DT_FLOAT", "tensorShape": {"dim": [{"size": "1"}, {"size": "1"}, {"size": "80"}, {"size": "184"}]}}}, "dtype": {"type": "DT_FLOAT"}}}, {"name": "StatefulPartitionedCall/StatefulPartitionedCall/predict/MobilenetV3/expanded_conv_8/expand/Conv2D_bn_offset", "op": "Const", "attr": {"value": {"tensor": {"dtype": "DT_FLOAT", "tensorShape": {"dim": [{"size": "184"}]}}}, "dtype": {"type": "DT_FLOAT"}}}, {"name": "StatefulPartitionedCall/StatefulPartitionedCall/predict/MobilenetV3/expanded_conv_8/depthwise/depthwise_weights", "op": "Const", "attr": {"dtype": {"type": "DT_FLOAT"}, "value": {"tensor": {"dtype": "DT_FLOAT", "tensorShape": {"dim": [{"size": "3"}, {"size": "3"}, {"size": "184"}, {"size": "1"}]}}}}}, {"name": "StatefulPartitionedCall/StatefulPartitionedCall/predict/MobilenetV3/expanded_conv_8/depthwise/depthwise_bn_offset", "op": "Const", "attr": {"dtype": {"type": "DT_FLOAT"}, "value": {"tensor": {"dtype": "DT_FLOAT", "tensorShape": {"dim": [{"size": "184"}]}}}}}, {"name": "StatefulPartitionedCall/StatefulPartitionedCall/predict/MobilenetV3/expanded_conv_8/project/Conv2D_weights", "op": "Const", "attr": {"dtype": {"type": "DT_FLOAT"}, "value": {"tensor": {"dtype": "DT_FLOAT", "tensorShape": {"dim": [{"size": "1"}, {"size": "1"}, {"size": "184"}, {"size": "80"}]}}}}}, {"name": "StatefulPartitionedCall/StatefulPartitionedCall/predict/MobilenetV3/expanded_conv_8/project/Conv2D_bn_offset", "op": "Const", "attr": {"dtype": {"type": "DT_FLOAT"}, "value": {"tensor": {"dtype": "DT_FLOAT", "tensorShape": {"dim": [{"size": "80"}]}}}}}, {"name": "StatefulPartitionedCall/StatefulPartitionedCall/predict/MobilenetV3/expanded_conv_9/expand/Conv2D_weights", "op": "Const", "attr": {"value": {"tensor": {"dtype": "DT_FLOAT", "tensorShape": {"dim": [{"size": "1"}, {"size": "1"}, {"size": "80"}, {"size": "184"}]}}}, "dtype": {"type": "DT_FLOAT"}}}, {"name": "StatefulPartitionedCall/StatefulPartitionedCall/predict/MobilenetV3/expanded_conv_9/expand/Conv2D_bn_offset", "op": "Const", "attr": {"dtype": {"type": "DT_FLOAT"}, "value": {"tensor": {"dtype": "DT_FLOAT", "tensorShape": {"dim": [{"size": "184"}]}}}}}, {"name": "StatefulPartitionedCall/StatefulPartitionedCall/predict/MobilenetV3/expanded_conv_9/depthwise/depthwise_weights", "op": "Const", "attr": {"dtype": {"type": "DT_FLOAT"}, "value": {"tensor": {"dtype": "DT_FLOAT", "tensorShape": {"dim": [{"size": "3"}, {"size": "3"}, {"size": "184"}, {"size": "1"}]}}}}}, {"name": "StatefulPartitionedCall/StatefulPartitionedCall/predict/MobilenetV3/expanded_conv_9/depthwise/depthwise_bn_offset", "op": "Const", "attr": {"value": {"tensor": {"dtype": "DT_FLOAT", "tensorShape": {"dim": [{"size": "184"}]}}}, "dtype": {"type": "DT_FLOAT"}}}, {"name": "StatefulPartitionedCall/StatefulPartitionedCall/predict/MobilenetV3/expanded_conv_9/project/Conv2D_weights", "op": "Const", "attr": {"dtype": {"type": "DT_FLOAT"}, "value": {"tensor": {"dtype": "DT_FLOAT", "tensorShape": {"dim": [{"size": "1"}, {"size": "1"}, {"size": "184"}, {"size": "80"}]}}}}}, {"name": "StatefulPartitionedCall/StatefulPartitionedCall/predict/MobilenetV3/expanded_conv_9/project/Conv2D_bn_offset", "op": "Const", "attr": {"dtype": {"type": "DT_FLOAT"}, "value": {"tensor": {"dtype": "DT_FLOAT", "tensorShape": {"dim": [{"size": "80"}]}}}}}, {"name": "StatefulPartitionedCall/StatefulPartitionedCall/predict/MobilenetV3/expanded_conv_10/expand/Conv2D_weights", "op": "Const", "attr": {"dtype": {"type": "DT_FLOAT"}, "value": {"tensor": {"dtype": "DT_FLOAT", "tensorShape": {"dim": [{"size": "1"}, {"size": "1"}, {"size": "80"}, {"size": "480"}]}}}}}, {"name": "StatefulPartitionedCall/StatefulPartitionedCall/predict/MobilenetV3/expanded_conv_10/expand/Conv2D_bn_offset", "op": "Const", "attr": {"dtype": {"type": "DT_FLOAT"}, "value": {"tensor": {"dtype": "DT_FLOAT", "tensorShape": {"dim": [{"size": "480"}]}}}}}, {"name": "StatefulPartitionedCall/StatefulPartitionedCall/predict/MobilenetV3/expanded_conv_10/depthwise/depthwise_weights", "op": "Const", "attr": {"dtype": {"type": "DT_FLOAT"}, "value": {"tensor": {"dtype": "DT_FLOAT", "tensorShape": {"dim": [{"size": "3"}, {"size": "3"}, {"size": "480"}, {"size": "1"}]}}}}}, {"name": "StatefulPartitionedCall/StatefulPartitionedCall/predict/MobilenetV3/expanded_conv_10/depthwise/depthwise_bn_offset", "op": "Const", "attr": {"value": {"tensor": {"dtype": "DT_FLOAT", "tensorShape": {"dim": [{"size": "480"}]}}}, "dtype": {"type": "DT_FLOAT"}}}, {"name": "StatefulPartitionedCall/StatefulPartitionedCall/predict/MobilenetV3/expanded_conv_14/project/Conv2D_weights", "op": "Const", "attr": {"value": {"tensor": {"dtype": "DT_FLOAT", "tensorShape": {"dim": [{"size": "1"}, {"size": "1"}, {"size": "960"}, {"size": "160"}]}}}, "dtype": {"type": "DT_FLOAT"}}}, {"name": "StatefulPartitionedCall/StatefulPartitionedCall/predict/MobilenetV3/expanded_conv_10/project/Conv2D_weights", "op": "Const", "attr": {"value": {"tensor": {"dtype": "DT_FLOAT", "tensorShape": {"dim": [{"size": "1"}, {"size": "1"}, {"size": "480"}, {"size": "112"}]}}}, "dtype": {"type": "DT_FLOAT"}}}, {"name": "StatefulPartitionedCall/StatefulPartitionedCall/predict/MobilenetV3/expanded_conv_10/project/Conv2D_bn_offset", "op": "Const", "attr": {"value": {"tensor": {"dtype": "DT_FLOAT", "tensorShape": {"dim": [{"size": "112"}]}}}, "dtype": {"type": "DT_FLOAT"}}}, {"name": "StatefulPartitionedCall/StatefulPartitionedCall/predict/MobilenetV3/expanded_conv_11/expand/Conv2D_weights", "op": "Const", "attr": {"value": {"tensor": {"dtype": "DT_FLOAT", "tensorShape": {"dim": [{"size": "1"}, {"size": "1"}, {"size": "112"}, {"size": "672"}]}}}, "dtype": {"type": "DT_FLOAT"}}}, {"name": "StatefulPartitionedCall/StatefulPartitionedCall/predict/MobilenetV3/expanded_conv_14/project/Conv2D_bn_offset", "op": "Const", "attr": {"value": {"tensor": {"dtype": "DT_FLOAT", "tensorShape": {"dim": [{"size": "160"}]}}}, "dtype": {"type": "DT_FLOAT"}}}, {"name": "StatefulPartitionedCall/StatefulPartitionedCall/predict/MobilenetV3/expanded_conv_11/expand/Conv2D_bn_offset", "op": "Const", "attr": {"dtype": {"type": "DT_FLOAT"}, "value": {"tensor": {"dtype": "DT_FLOAT", "tensorShape": {"dim": [{"size": "672"}]}}}}}, {"name": "StatefulPartitionedCall/StatefulPartitionedCall/predict/MobilenetV3/expanded_conv_11/depthwise/depthwise_weights", "op": "Const", "attr": {"value": {"tensor": {"dtype": "DT_FLOAT", "tensorShape": {"dim": [{"size": "3"}, {"size": "3"}, {"size": "672"}, {"size": "1"}]}}}, "dtype": {"type": "DT_FLOAT"}}}, {"name": "StatefulPartitionedCall/StatefulPartitionedCall/predict/MobilenetV3/expanded_conv_11/depthwise/depthwise_bn_offset", "op": "Const", "attr": {"dtype": {"type": "DT_FLOAT"}, "value": {"tensor": {"dtype": "DT_FLOAT", "tensorShape": {"dim": [{"size": "672"}]}}}}}, {"name": "StatefulPartitionedCall/StatefulPartitionedCall/predict/MobilenetV3/Conv_1/Conv2D_weights", "op": "Const", "attr": {"dtype": {"type": "DT_FLOAT"}, "value": {"tensor": {"dtype": "DT_FLOAT", "tensorShape": {"dim": [{"size": "1"}, {"size": "1"}, {"size": "160"}, {"size": "960"}]}}}}}, {"name": "StatefulPartitionedCall/StatefulPartitionedCall/predict/MobilenetV3/expanded_conv_11/project/Conv2D_weights", "op": "Const", "attr": {"value": {"tensor": {"dtype": "DT_FLOAT", "tensorShape": {"dim": [{"size": "1"}, {"size": "1"}, {"size": "672"}, {"size": "112"}]}}}, "dtype": {"type": "DT_FLOAT"}}}, {"name": "StatefulPartitionedCall/StatefulPartitionedCall/predict/MobilenetV3/expanded_conv_11/project/Conv2D_bn_offset", "op": "Const", "attr": {"dtype": {"type": "DT_FLOAT"}, "value": {"tensor": {"dtype": "DT_FLOAT", "tensorShape": {"dim": [{"size": "112"}]}}}}}, {"name": "StatefulPartitionedCall/StatefulPartitionedCall/predict/MobilenetV3/expanded_conv_12/expand/Conv2D_weights", "op": "Const", "attr": {"value": {"tensor": {"dtype": "DT_FLOAT", "tensorShape": {"dim": [{"size": "1"}, {"size": "1"}, {"size": "112"}, {"size": "672"}]}}}, "dtype": {"type": "DT_FLOAT"}}}, {"name": "StatefulPartitionedCall/StatefulPartitionedCall/predict/MobilenetV3/Conv_1/Conv2D_bn_offset", "op": "Const", "attr": {"value": {"tensor": {"dtype": "DT_FLOAT", "tensorShape": {"dim": [{"size": "960"}]}}}, "dtype": {"type": "DT_FLOAT"}}}, {"name": "StatefulPartitionedCall/StatefulPartitionedCall/predict/MobilenetV3/expanded_conv_12/expand/Conv2D_bn_offset", "op": "Const", "attr": {"value": {"tensor": {"dtype": "DT_FLOAT", "tensorShape": {"dim": [{"size": "672"}]}}}, "dtype": {"type": "DT_FLOAT"}}}, {"name": "StatefulPartitionedCall/StatefulPartitionedCall/predict/MobilenetV3/expanded_conv_12/depthwise/depthwise_weights", "op": "Const", "attr": {"dtype": {"type": "DT_FLOAT"}, "value": {"tensor": {"dtype": "DT_FLOAT", "tensorShape": {"dim": [{"size": "5"}, {"size": "5"}, {"size": "672"}, {"size": "1"}]}}}}}, {"name": "StatefulPartitionedCall/StatefulPartitionedCall/predict/MobilenetV3/expanded_conv_12/depthwise/depthwise_bn_offset", "op": "Const", "attr": {"dtype": {"type": "DT_FLOAT"}, "value": {"tensor": {"dtype": "DT_FLOAT", "tensorShape": {"dim": [{"size": "672"}]}}}}}, {"name": "StatefulPartitionedCall/StatefulPartitionedCall/predict/MobilenetV3/expanded_conv_12/project/Conv2D_weights", "op": "Const", "attr": {"value": {"tensor": {"dtype": "DT_FLOAT", "tensorShape": {"dim": [{"size": "1"}, {"size": "1"}, {"size": "672"}, {"size": "160"}]}}}, "dtype": {"type": "DT_FLOAT"}}}, {"name": "StatefulPartitionedCall/StatefulPartitionedCall/predict/MobilenetV3/expanded_conv_12/project/Conv2D_bn_offset", "op": "Const", "attr": {"dtype": {"type": "DT_FLOAT"}, "value": {"tensor": {"dtype": "DT_FLOAT", "tensorShape": {"dim": [{"size": "160"}]}}}}}, {"name": "StatefulPartitionedCall/StatefulPartitionedCall/predict/MobilenetV3/expanded_conv_13/expand/Conv2D_weights", "op": "Const", "attr": {"value": {"tensor": {"dtype": "DT_FLOAT", "tensorShape": {"dim": [{"size": "1"}, {"size": "1"}, {"size": "160"}, {"size": "960"}]}}}, "dtype": {"type": "DT_FLOAT"}}}, {"name": "StatefulPartitionedCall/StatefulPartitionedCall/predict/MobilenetV3/expanded_conv_13/expand/Conv2D_bn_offset", "op": "Const", "attr": {"dtype": {"type": "DT_FLOAT"}, "value": {"tensor": {"dtype": "DT_FLOAT", "tensorShape": {"dim": [{"size": "960"}]}}}}}, {"name": "StatefulPartitionedCall/StatefulPartitionedCall/predict/MobilenetV3/expanded_conv_13/depthwise/depthwise_weights", "op": "Const", "attr": {"dtype": {"type": "DT_FLOAT"}, "value": {"tensor": {"dtype": "DT_FLOAT", "tensorShape": {"dim": [{"size": "5"}, {"size": "5"}, {"size": "960"}, {"size": "1"}]}}}}}, {"name": "StatefulPartitionedCall/StatefulPartitionedCall/predict/MobilenetV3/expanded_conv_13/depthwise/depthwise_bn_offset", "op": "Const", "attr": {"dtype": {"type": "DT_FLOAT"}, "value": {"tensor": {"dtype": "DT_FLOAT", "tensorShape": {"dim": [{"size": "960"}]}}}}}, {"name": "StatefulPartitionedCall/StatefulPartitionedCall/predict/MobilenetV3/Conv_2/hard_swish/mul_1/y", "op": "Const", "input": ["^inputs"], "attr": {"value": {"tensor": {"dtype": "DT_FLOAT", "tensorShape": {}}}, "dtype": {"type": "DT_FLOAT"}}}, {"name": "StatefulPartitionedCall/StatefulPartitionedCall/predict/MobilenetV3/Conv_1/hard_swish/mul_1/y", "op": "Const", "input": ["^inputs"], "attr": {"dtype": {"type": "DT_FLOAT"}, "value": {"tensor": {"dtype": "DT_FLOAT", "tensorShape": {}}}}}, {"name": "StatefulPartitionedCall/StatefulPartitionedCall/predict/MobilenetV3/expanded_conv_14/squeeze_excite/Conv_1/mul/y", "op": "Const", "input": ["^inputs"], "attr": {"value": {"tensor": {"dtype": "DT_FLOAT", "tensorShape": {}}}, "dtype": {"type": "DT_FLOAT"}}}, {"name": "StatefulPartitionedCall/StatefulPartitionedCall/predict/MobilenetV3/expanded_conv_14/squeeze_excite/Mean/reduction_indices", "op": "Const", "input": ["^inputs"], "attr": {"dtype": {"type": "DT_INT32"}, "value": {"tensor": {"dtype": "DT_INT32", "tensorShape": {"dim": [{"size": "2"}]}}}}}, {"name": "Func/StatefulPartitionedCall/StatefulPartitionedCall/input/_520", "op": "Const", "input": ["^inputs"], "attr": {"dtype": {"type": "DT_FLOAT"}, "value": {"tensor": {"dtype": "DT_FLOAT", "tensorShape": {"dim": [{"size": "1"}, {"size": "1"}, {"size": "960"}, {"size": "240"}]}}}}}, {"name": "Func/StatefulPartitionedCall/StatefulPartitionedCall/input/_521", "op": "Const", "input": ["^inputs"], "attr": {"dtype": {"type": "DT_FLOAT"}, "value": {"tensor": {"dtype": "DT_FLOAT", "tensorShape": {"dim": [{"size": "240"}]}}}}}, {"name": "Func/StatefulPartitionedCall/StatefulPartitionedCall/input/_522", "op": "Const", "input": ["^inputs"], "attr": {"value": {"tensor": {"dtype": "DT_FLOAT", "tensorShape": {"dim": [{"size": "1"}, {"size": "1"}, {"size": "240"}, {"size": "960"}]}}}, "dtype": {"type": "DT_FLOAT"}}}, {"name": "Func/StatefulPartitionedCall/StatefulPartitionedCall/input/_523", "op": "Const", "input": ["^inputs"], "attr": {"value": {"tensor": {"dtype": "DT_FLOAT", "tensorShape": {"dim": [{"size": "960"}]}}}, "dtype": {"type": "DT_FLOAT"}}}, {"name": "StatefulPartitionedCall/StatefulPartitionedCall/predict/MobilenetV3/expanded_conv_14/squeeze_excite/Conv_1/add/y", "op": "Const", "input": ["^inputs"], "attr": {"value": {"tensor": {"dtype": "DT_FLOAT", "tensorShape": {}}}, "dtype": {"type": "DT_FLOAT"}}}, {"name": "StatefulPartitionedCall/StatefulPartitionedCall/predict/MobilenetV3/expanded_conv_14/depthwise/hard_swish/mul_1/y", "op": "Const", "input": ["^inputs"], "attr": {"value": {"tensor": {"dtype": "DT_FLOAT", "tensorShape": {}}}, "dtype": {"type": "DT_FLOAT"}}}, {"name": "StatefulPartitionedCall/StatefulPartitionedCall/predict/MobilenetV3/expanded_conv_14/expand/hard_swish/mul_1/y", "op": "Const", "input": ["^inputs"], "attr": {"value": {"tensor": {"dtype": "DT_FLOAT", "tensorShape": {}}}, "dtype": {"type": "DT_FLOAT"}}}, {"name": "StatefulPartitionedCall/StatefulPartitionedCall/predict/MobilenetV3/expanded_conv_14/expand/hard_swish/add/y", "op": "Const", "input": ["^inputs"], "attr": {"value": {"tensor": {"dtype": "DT_FLOAT", "tensorShape": {}}}, "dtype": {"type": "DT_FLOAT"}}}, {"name": "StatefulPartitionedCall/StatefulPartitionedCall/predict/MobilenetV3/expanded_conv_14/depthwise/hard_swish/add/y", "op": "Const", "input": ["^inputs"], "attr": {"value": {"tensor": {"dtype": "DT_FLOAT", "tensorShape": {}}}, "dtype": {"type": "DT_FLOAT"}}}, {"name": "StatefulPartitionedCall/StatefulPartitionedCall/predict/MobilenetV3/expanded_conv_13/squeeze_excite/Conv_1/mul/y", "op": "Const", "input": ["^inputs"], "attr": {"value": {"tensor": {"dtype": "DT_FLOAT", "tensorShape": {}}}, "dtype": {"type": "DT_FLOAT"}}}, {"name": "StatefulPartitionedCall/StatefulPartitionedCall/predict/MobilenetV3/expanded_conv_13/squeeze_excite/Mean/reduction_indices", "op": "Const", "input": ["^inputs"], "attr": {"value": {"tensor": {"dtype": "DT_INT32", "tensorShape": {"dim": [{"size": "2"}]}}}, "dtype": {"type": "DT_INT32"}}}, {"name": "Func/StatefulPartitionedCall/StatefulPartitionedCall/input/_501", "op": "Const", "input": ["^inputs"], "attr": {"dtype": {"type": "DT_FLOAT"}, "value": {"tensor": {"dtype": "DT_FLOAT", "tensorShape": {"dim": [{"size": "1"}, {"size": "1"}, {"size": "960"}, {"size": "240"}]}}}}}, {"name": "Func/StatefulPartitionedCall/StatefulPartitionedCall/input/_502", "op": "Const", "input": ["^inputs"], "attr": {"value": {"tensor": {"dtype": "DT_FLOAT", "tensorShape": {"dim": [{"size": "240"}]}}}, "dtype": {"type": "DT_FLOAT"}}}, {"name": "Func/StatefulPartitionedCall/StatefulPartitionedCall/input/_503", "op": "Const", "input": ["^inputs"], "attr": {"value": {"tensor": {"dtype": "DT_FLOAT", "tensorShape": {"dim": [{"size": "1"}, {"size": "1"}, {"size": "240"}, {"size": "960"}]}}}, "dtype": {"type": "DT_FLOAT"}}}, {"name": "Func/StatefulPartitionedCall/StatefulPartitionedCall/input/_504", "op": "Const", "input": ["^inputs"], "attr": {"dtype": {"type": "DT_FLOAT"}, "value": {"tensor": {"dtype": "DT_FLOAT", "tensorShape": {"dim": [{"size": "960"}]}}}}}, {"name": "StatefulPartitionedCall/StatefulPartitionedCall/predict/MobilenetV3/expanded_conv_13/squeeze_excite/Conv_1/add/y", "op": "Const", "input": ["^inputs"], "attr": {"value": {"tensor": {"dtype": "DT_FLOAT", "tensorShape": {}}}, "dtype": {"type": "DT_FLOAT"}}}, {"name": "StatefulPartitionedCall/StatefulPartitionedCall/predict/MobilenetV3/expanded_conv_13/depthwise/hard_swish/mul_1/y", "op": "Const", "input": ["^inputs"], "attr": {"value": {"tensor": {"dtype": "DT_FLOAT", "tensorShape": {}}}, "dtype": {"type": "DT_FLOAT"}}}, {"name": "StatefulPartitionedCall/StatefulPartitionedCall/predict/MobilenetV3/expanded_conv_13/expand/hard_swish/mul_1/y", "op": "Const", "input": ["^inputs"], "attr": {"dtype": {"type": "DT_FLOAT"}, "value": {"tensor": {"dtype": "DT_FLOAT", "tensorShape": {}}}}}, {"name": "StatefulPartitionedCall/StatefulPartitionedCall/predict/MobilenetV3/expanded_conv_13/expand/hard_swish/add/y", "op": "Const", "input": ["^inputs"], "attr": {"value": {"tensor": {"dtype": "DT_FLOAT", "tensorShape": {}}}, "dtype": {"type": "DT_FLOAT"}}}, {"name": "StatefulPartitionedCall/StatefulPartitionedCall/predict/MobilenetV3/expanded_conv_13/depthwise/hard_swish/add/y", "op": "Const", "input": ["^inputs"], "attr": {"dtype": {"type": "DT_FLOAT"}, "value": {"tensor": {"dtype": "DT_FLOAT", "tensorShape": {}}}}}, {"name": "StatefulPartitionedCall/StatefulPartitionedCall/predict/MobilenetV3/expanded_conv_12/squeeze_excite/Conv_1/mul/y", "op": "Const", "input": ["^inputs"], "attr": {"dtype": {"type": "DT_FLOAT"}, "value": {"tensor": {"dtype": "DT_FLOAT", "tensorShape": {}}}}}, {"name": "StatefulPartitionedCall/StatefulPartitionedCall/predict/MobilenetV3/expanded_conv_12/squeeze_excite/Mean/reduction_indices", "op": "Const", "input": ["^inputs"], "attr": {"dtype": {"type": "DT_INT32"}, "value": {"tensor": {"dtype": "DT_INT32", "tensorShape": {"dim": [{"size": "2"}]}}}}}, {"name": "Func/StatefulPartitionedCall/StatefulPartitionedCall/input/_482", "op": "Const", "input": ["^inputs"], "attr": {"value": {"tensor": {"dtype": "DT_FLOAT", "tensorShape": {"dim": [{"size": "1"}, {"size": "1"}, {"size": "672"}, {"size": "168"}]}}}, "dtype": {"type": "DT_FLOAT"}}}, {"name": "Func/StatefulPartitionedCall/StatefulPartitionedCall/input/_483", "op": "Const", "input": ["^inputs"], "attr": {"dtype": {"type": "DT_FLOAT"}, "value": {"tensor": {"dtype": "DT_FLOAT", "tensorShape": {"dim": [{"size": "168"}]}}}}}, {"name": "Func/StatefulPartitionedCall/StatefulPartitionedCall/input/_484", "op": "Const", "input": ["^inputs"], "attr": {"value": {"tensor": {"dtype": "DT_FLOAT", "tensorShape": {"dim": [{"size": "1"}, {"size": "1"}, {"size": "168"}, {"size": "672"}]}}}, "dtype": {"type": "DT_FLOAT"}}}, {"name": "Func/StatefulPartitionedCall/StatefulPartitionedCall/input/_485", "op": "Const", "input": ["^inputs"], "attr": {"value": {"tensor": {"dtype": "DT_FLOAT", "tensorShape": {"dim": [{"size": "672"}]}}}, "dtype": {"type": "DT_FLOAT"}}}, {"name": "StatefulPartitionedCall/StatefulPartitionedCall/predict/MobilenetV3/expanded_conv_12/squeeze_excite/Conv_1/add/y", "op": "Const", "input": ["^inputs"], "attr": {"dtype": {"type": "DT_FLOAT"}, "value": {"tensor": {"dtype": "DT_FLOAT", "tensorShape": {}}}}}, {"name": "StatefulPartitionedCall/StatefulPartitionedCall/predict/MobilenetV3/expanded_conv_12/depthwise/hard_swish/mul_1/y", "op": "Const", "input": ["^inputs"], "attr": {"value": {"tensor": {"dtype": "DT_FLOAT", "tensorShape": {}}}, "dtype": {"type": "DT_FLOAT"}}}, {"name": "StatefulPartitionedCall/StatefulPartitionedCall/predict/MobilenetV3/expanded_conv_12/expand/hard_swish/mul_1/y", "op": "Const", "input": ["^inputs"], "attr": {"value": {"tensor": {"dtype": "DT_FLOAT", "tensorShape": {}}}, "dtype": {"type": "DT_FLOAT"}}}, {"name": "StatefulPartitionedCall/StatefulPartitionedCall/predict/MobilenetV3/expanded_conv_11/squeeze_excite/Conv_1/mul/y", "op": "Const", "input": ["^inputs"], "attr": {"dtype": {"type": "DT_FLOAT"}, "value": {"tensor": {"dtype": "DT_FLOAT", "tensorShape": {}}}}}, {"name": "StatefulPartitionedCall/StatefulPartitionedCall/predict/MobilenetV3/expanded_conv_11/squeeze_excite/Mean/reduction_indices", "op": "Const", "input": ["^inputs"], "attr": {"value": {"tensor": {"dtype": "DT_INT32", "tensorShape": {"dim": [{"size": "2"}]}}}, "dtype": {"type": "DT_INT32"}}}, {"name": "Func/StatefulPartitionedCall/StatefulPartitionedCall/input/_463", "op": "Const", "input": ["^inputs"], "attr": {"dtype": {"type": "DT_FLOAT"}, "value": {"tensor": {"dtype": "DT_FLOAT", "tensorShape": {"dim": [{"size": "1"}, {"size": "1"}, {"size": "672"}, {"size": "168"}]}}}}}, {"name": "Func/StatefulPartitionedCall/StatefulPartitionedCall/input/_464", "op": "Const", "input": ["^inputs"], "attr": {"value": {"tensor": {"dtype": "DT_FLOAT", "tensorShape": {"dim": [{"size": "168"}]}}}, "dtype": {"type": "DT_FLOAT"}}}, {"name": "Func/StatefulPartitionedCall/StatefulPartitionedCall/input/_465", "op": "Const", "input": ["^inputs"], "attr": {"dtype": {"type": "DT_FLOAT"}, "value": {"tensor": {"dtype": "DT_FLOAT", "tensorShape": {"dim": [{"size": "1"}, {"size": "1"}, {"size": "168"}, {"size": "672"}]}}}}}, {"name": "Func/StatefulPartitionedCall/StatefulPartitionedCall/input/_466", "op": "Const", "input": ["^inputs"], "attr": {"value": {"tensor": {"dtype": "DT_FLOAT", "tensorShape": {"dim": [{"size": "672"}]}}}, "dtype": {"type": "DT_FLOAT"}}}, {"name": "StatefulPartitionedCall/StatefulPartitionedCall/predict/MobilenetV3/expanded_conv_11/squeeze_excite/Conv_1/add/y", "op": "Const", "input": ["^inputs"], "attr": {"dtype": {"type": "DT_FLOAT"}, "value": {"tensor": {"dtype": "DT_FLOAT", "tensorShape": {}}}}}, {"name": "StatefulPartitionedCall/StatefulPartitionedCall/predict/MobilenetV3/expanded_conv_11/depthwise/hard_swish/mul_1/y", "op": "Const", "input": ["^inputs"], "attr": {"dtype": {"type": "DT_FLOAT"}, "value": {"tensor": {"dtype": "DT_FLOAT", "tensorShape": {}}}}}, {"name": "StatefulPartitionedCall/StatefulPartitionedCall/predict/MobilenetV3/expanded_conv_11/expand/hard_swish/mul_1/y", "op": "Const", "input": ["^inputs"], "attr": {"value": {"tensor": {"dtype": "DT_FLOAT", "tensorShape": {}}}, "dtype": {"type": "DT_FLOAT"}}}, {"name": "StatefulPartitionedCall/StatefulPartitionedCall/predict/MobilenetV3/expanded_conv_11/expand/hard_swish/add/y", "op": "Const", "input": ["^inputs"], "attr": {"dtype": {"type": "DT_FLOAT"}, "value": {"tensor": {"dtype": "DT_FLOAT", "tensorShape": {}}}}}, {"name": "StatefulPartitionedCall/StatefulPartitionedCall/predict/MobilenetV3/expanded_conv_11/depthwise/hard_swish/add/y", "op": "Const", "input": ["^inputs"], "attr": {"value": {"tensor": {"dtype": "DT_FLOAT", "tensorShape": {}}}, "dtype": {"type": "DT_FLOAT"}}}, {"name": "StatefulPartitionedCall/StatefulPartitionedCall/predict/MobilenetV3/expanded_conv_10/squeeze_excite/Conv_1/mul/y", "op": "Const", "input": ["^inputs"], "attr": {"value": {"tensor": {"dtype": "DT_FLOAT", "tensorShape": {}}}, "dtype": {"type": "DT_FLOAT"}}}, {"name": "StatefulPartitionedCall/StatefulPartitionedCall/predict/MobilenetV3/expanded_conv_10/squeeze_excite/Mean/reduction_indices", "op": "Const", "input": ["^inputs"], "attr": {"dtype": {"type": "DT_INT32"}, "value": {"tensor": {"dtype": "DT_INT32", "tensorShape": {"dim": [{"size": "2"}]}}}}}, {"name": "Func/StatefulPartitionedCall/StatefulPartitionedCall/input/_444", "op": "Const", "input": ["^inputs"], "attr": {"dtype": {"type": "DT_FLOAT"}, "value": {"tensor": {"dtype": "DT_FLOAT", "tensorShape": {"dim": [{"size": "1"}, {"size": "1"}, {"size": "480"}, {"size": "120"}]}}}}}, {"name": "Func/StatefulPartitionedCall/StatefulPartitionedCall/input/_445", "op": "Const", "input": ["^inputs"], "attr": {"value": {"tensor": {"dtype": "DT_FLOAT", "tensorShape": {"dim": [{"size": "120"}]}}}, "dtype": {"type": "DT_FLOAT"}}}, {"name": "Func/StatefulPartitionedCall/StatefulPartitionedCall/input/_446", "op": "Const", "input": ["^inputs"], "attr": {"value": {"tensor": {"dtype": "DT_FLOAT", "tensorShape": {"dim": [{"size": "1"}, {"size": "1"}, {"size": "120"}, {"size": "480"}]}}}, "dtype": {"type": "DT_FLOAT"}}}, {"name": "Func/StatefulPartitionedCall/StatefulPartitionedCall/input/_447", "op": "Const", "input": ["^inputs"], "attr": {"value": {"tensor": {"dtype": "DT_FLOAT", "tensorShape": {"dim": [{"size": "480"}]}}}, "dtype": {"type": "DT_FLOAT"}}}, {"name": "StatefulPartitionedCall/StatefulPartitionedCall/predict/MobilenetV3/expanded_conv_10/squeeze_excite/Conv_1/add/y", "op": "Const", "input": ["^inputs"], "attr": {"dtype": {"type": "DT_FLOAT"}, "value": {"tensor": {"dtype": "DT_FLOAT", "tensorShape": {}}}}}, {"name": "StatefulPartitionedCall/StatefulPartitionedCall/predict/MobilenetV3/expanded_conv_10/depthwise/hard_swish/mul_1/y", "op": "Const", "input": ["^inputs"], "attr": {"value": {"tensor": {"dtype": "DT_FLOAT", "tensorShape": {}}}, "dtype": {"type": "DT_FLOAT"}}}, {"name": "StatefulPartitionedCall/StatefulPartitionedCall/predict/MobilenetV3/expanded_conv_10/expand/hard_swish/mul_1/y", "op": "Const", "input": ["^inputs"], "attr": {"dtype": {"type": "DT_FLOAT"}, "value": {"tensor": {"dtype": "DT_FLOAT", "tensorShape": {}}}}}, {"name": "StatefulPartitionedCall/StatefulPartitionedCall/predict/MobilenetV3/expanded_conv_9/depthwise/hard_swish/mul_1/y", "op": "Const", "input": ["^inputs"], "attr": {"dtype": {"type": "DT_FLOAT"}, "value": {"tensor": {"dtype": "DT_FLOAT", "tensorShape": {}}}}}, {"name": "StatefulPartitionedCall/StatefulPartitionedCall/predict/MobilenetV3/expanded_conv_9/expand/hard_swish/mul_1/y", "op": "Const", "input": ["^inputs"], "attr": {"value": {"tensor": {"dtype": "DT_FLOAT", "tensorShape": {}}}, "dtype": {"type": "DT_FLOAT"}}}, {"name": "StatefulPartitionedCall/StatefulPartitionedCall/predict/MobilenetV3/expanded_conv_9/expand/hard_swish/add/y", "op": "Const", "input": ["^inputs"], "attr": {"value": {"tensor": {"dtype": "DT_FLOAT", "tensorShape": {}}}, "dtype": {"type": "DT_FLOAT"}}}, {"name": "StatefulPartitionedCall/StatefulPartitionedCall/predict/MobilenetV3/expanded_conv_9/depthwise/hard_swish/add/y", "op": "Const", "input": ["^inputs"], "attr": {"value": {"tensor": {"dtype": "DT_FLOAT", "tensorShape": {}}}, "dtype": {"type": "DT_FLOAT"}}}, {"name": "StatefulPartitionedCall/StatefulPartitionedCall/predict/MobilenetV3/expanded_conv_8/depthwise/hard_swish/mul_1/y", "op": "Const", "input": ["^inputs"], "attr": {"dtype": {"type": "DT_FLOAT"}, "value": {"tensor": {"dtype": "DT_FLOAT", "tensorShape": {}}}}}, {"name": "StatefulPartitionedCall/StatefulPartitionedCall/predict/MobilenetV3/expanded_conv_8/expand/hard_swish/mul_1/y", "op": "Const", "input": ["^inputs"], "attr": {"dtype": {"type": "DT_FLOAT"}, "value": {"tensor": {"dtype": "DT_FLOAT", "tensorShape": {}}}}}, {"name": "StatefulPartitionedCall/StatefulPartitionedCall/predict/MobilenetV3/expanded_conv_8/expand/hard_swish/add/y", "op": "Const", "input": ["^inputs"], "attr": {"dtype": {"type": "DT_FLOAT"}, "value": {"tensor": {"dtype": "DT_FLOAT", "tensorShape": {}}}}}, {"name": "StatefulPartitionedCall/StatefulPartitionedCall/predict/MobilenetV3/expanded_conv_8/depthwise/hard_swish/add/y", "op": "Const", "input": ["^inputs"], "attr": {"value": {"tensor": {"dtype": "DT_FLOAT", "tensorShape": {}}}, "dtype": {"type": "DT_FLOAT"}}}, {"name": "StatefulPartitionedCall/StatefulPartitionedCall/predict/MobilenetV3/expanded_conv_7/depthwise/hard_swish/mul_1/y", "op": "Const", "input": ["^inputs"], "attr": {"dtype": {"type": "DT_FLOAT"}, "value": {"tensor": {"dtype": "DT_FLOAT", "tensorShape": {}}}}}, {"name": "StatefulPartitionedCall/StatefulPartitionedCall/predict/MobilenetV3/expanded_conv_7/expand/hard_swish/mul_1/y", "op": "Const", "input": ["^inputs"], "attr": {"value": {"tensor": {"dtype": "DT_FLOAT", "tensorShape": {}}}, "dtype": {"type": "DT_FLOAT"}}}, {"name": "StatefulPartitionedCall/StatefulPartitionedCall/predict/MobilenetV3/expanded_conv_7/expand/hard_swish/add/y", "op": "Const", "input": ["^inputs"], "attr": {"dtype": {"type": "DT_FLOAT"}, "value": {"tensor": {"dtype": "DT_FLOAT", "tensorShape": {}}}}}, {"name": "StatefulPartitionedCall/StatefulPartitionedCall/predict/MobilenetV3/expanded_conv_7/depthwise/hard_swish/add/y", "op": "Const", "input": ["^inputs"], "attr": {"dtype": {"type": "DT_FLOAT"}, "value": {"tensor": {"dtype": "DT_FLOAT", "tensorShape": {}}}}}, {"name": "StatefulPartitionedCall/StatefulPartitionedCall/predict/MobilenetV3/expanded_conv_6/depthwise/hard_swish/mul_1/y", "op": "Const", "input": ["^inputs"], "attr": {"dtype": {"type": "DT_FLOAT"}, "value": {"tensor": {"dtype": "DT_FLOAT", "tensorShape": {}}}}}, {"name": "StatefulPartitionedCall/StatefulPartitionedCall/predict/MobilenetV3/expanded_conv_6/expand/hard_swish/mul_1/y", "op": "Const", "input": ["^inputs"], "attr": {"dtype": {"type": "DT_FLOAT"}, "value": {"tensor": {"dtype": "DT_FLOAT", "tensorShape": {}}}}}, {"name": "StatefulPartitionedCall/StatefulPartitionedCall/predict/MobilenetV3/expanded_conv_5/squeeze_excite/Conv_1/mul/y", "op": "Const", "input": ["^inputs"], "attr": {"dtype": {"type": "DT_FLOAT"}, "value": {"tensor": {"dtype": "DT_FLOAT", "tensorShape": {}}}}}, {"name": "StatefulPartitionedCall/StatefulPartitionedCall/predict/MobilenetV3/expanded_conv_5/squeeze_excite/Mean/reduction_indices", "op": "Const", "input": ["^inputs"], "attr": {"value": {"tensor": {"dtype": "DT_INT32", "tensorShape": {"dim": [{"size": "2"}]}}}, "dtype": {"type": "DT_INT32"}}}, {"name": "Func/StatefulPartitionedCall/StatefulPartitionedCall/input/_365", "op": "Const", "input": ["^inputs"], "attr": {"value": {"tensor": {"dtype": "DT_FLOAT", "tensorShape": {"dim": [{"size": "1"}, {"size": "1"}, {"size": "120"}, {"size": "32"}]}}}, "dtype": {"type": "DT_FLOAT"}}}, {"name": "Func/StatefulPartitionedCall/StatefulPartitionedCall/input/_366", "op": "Const", "input": ["^inputs"], "attr": {"dtype": {"type": "DT_FLOAT"}, "value": {"tensor": {"dtype": "DT_FLOAT", "tensorShape": {"dim": [{"size": "32"}]}}}}}, {"name": "Func/StatefulPartitionedCall/StatefulPartitionedCall/input/_367", "op": "Const", "input": ["^inputs"], "attr": {"value": {"tensor": {"dtype": "DT_FLOAT", "tensorShape": {"dim": [{"size": "1"}, {"size": "1"}, {"size": "32"}, {"size": "120"}]}}}, "dtype": {"type": "DT_FLOAT"}}}, {"name": "Func/StatefulPartitionedCall/StatefulPartitionedCall/input/_368", "op": "Const", "input": ["^inputs"], "attr": {"dtype": {"type": "DT_FLOAT"}, "value": {"tensor": {"dtype": "DT_FLOAT", "tensorShape": {"dim": [{"size": "120"}]}}}}}, {"name": "StatefulPartitionedCall/StatefulPartitionedCall/predict/MobilenetV3/expanded_conv_5/squeeze_excite/Conv_1/add/y", "op": "Const", "input": ["^inputs"], "attr": {"value": {"tensor": {"dtype": "DT_FLOAT", "tensorShape": {}}}, "dtype": {"type": "DT_FLOAT"}}}, {"name": "StatefulPartitionedCall/StatefulPartitionedCall/predict/MobilenetV3/expanded_conv_4/squeeze_excite/Conv_1/mul/y", "op": "Const", "input": ["^inputs"], "attr": {"value": {"tensor": {"dtype": "DT_FLOAT", "tensorShape": {}}}, "dtype": {"type": "DT_FLOAT"}}}, {"name": "StatefulPartitionedCall/StatefulPartitionedCall/predict/MobilenetV3/expanded_conv_4/squeeze_excite/Mean/reduction_indices", "op": "Const", "input": ["^inputs"], "attr": {"dtype": {"type": "DT_INT32"}, "value": {"tensor": {"dtype": "DT_INT32", "tensorShape": {"dim": [{"size": "2"}]}}}}}, {"name": "Func/StatefulPartitionedCall/StatefulPartitionedCall/input/_346", "op": "Const", "input": ["^inputs"], "attr": {"dtype": {"type": "DT_FLOAT"}, "value": {"tensor": {"dtype": "DT_FLOAT", "tensorShape": {"dim": [{"size": "1"}, {"size": "1"}, {"size": "120"}, {"size": "32"}]}}}}}, {"name": "Func/StatefulPartitionedCall/StatefulPartitionedCall/input/_347", "op": "Const", "input": ["^inputs"], "attr": {"dtype": {"type": "DT_FLOAT"}, "value": {"tensor": {"dtype": "DT_FLOAT", "tensorShape": {"dim": [{"size": "32"}]}}}}}, {"name": "Func/StatefulPartitionedCall/StatefulPartitionedCall/input/_348", "op": "Const", "input": ["^inputs"], "attr": {"dtype": {"type": "DT_FLOAT"}, "value": {"tensor": {"dtype": "DT_FLOAT", "tensorShape": {"dim": [{"size": "1"}, {"size": "1"}, {"size": "32"}, {"size": "120"}]}}}}}, {"name": "Func/StatefulPartitionedCall/StatefulPartitionedCall/input/_349", "op": "Const", "input": ["^inputs"], "attr": {"dtype": {"type": "DT_FLOAT"}, "value": {"tensor": {"dtype": "DT_FLOAT", "tensorShape": {"dim": [{"size": "120"}]}}}}}, {"name": "StatefulPartitionedCall/StatefulPartitionedCall/predict/MobilenetV3/expanded_conv_4/squeeze_excite/Conv_1/add/y", "op": "Const", "input": ["^inputs"], "attr": {"value": {"tensor": {"dtype": "DT_FLOAT", "tensorShape": {}}}, "dtype": {"type": "DT_FLOAT"}}}, {"name": "StatefulPartitionedCall/StatefulPartitionedCall/predict/MobilenetV3/expanded_conv_3/squeeze_excite/Conv_1/mul/y", "op": "Const", "input": ["^inputs"], "attr": {"dtype": {"type": "DT_FLOAT"}, "value": {"tensor": {"dtype": "DT_FLOAT", "tensorShape": {}}}}}, {"name": "StatefulPartitionedCall/StatefulPartitionedCall/predict/MobilenetV3/expanded_conv_3/squeeze_excite/Mean/reduction_indices", "op": "Const", "input": ["^inputs"], "attr": {"value": {"tensor": {"dtype": "DT_INT32", "tensorShape": {"dim": [{"size": "2"}]}}}, "dtype": {"type": "DT_INT32"}}}, {"name": "Func/StatefulPartitionedCall/StatefulPartitionedCall/input/_327", "op": "Const", "input": ["^inputs"], "attr": {"value": {"tensor": {"dtype": "DT_FLOAT", "tensorShape": {"dim": [{"size": "1"}, {"size": "1"}, {"size": "72"}, {"size": "24"}]}}}, "dtype": {"type": "DT_FLOAT"}}}, {"name": "Func/StatefulPartitionedCall/StatefulPartitionedCall/input/_328", "op": "Const", "input": ["^inputs"], "attr": {"dtype": {"type": "DT_FLOAT"}, "value": {"tensor": {"dtype": "DT_FLOAT", "tensorShape": {"dim": [{"size": "24"}]}}}}}, {"name": "Func/StatefulPartitionedCall/StatefulPartitionedCall/input/_329", "op": "Const", "input": ["^inputs"], "attr": {"dtype": {"type": "DT_FLOAT"}, "value": {"tensor": {"dtype": "DT_FLOAT", "tensorShape": {"dim": [{"size": "1"}, {"size": "1"}, {"size": "24"}, {"size": "72"}]}}}}}, {"name": "Func/StatefulPartitionedCall/StatefulPartitionedCall/input/_330", "op": "Const", "input": ["^inputs"], "attr": {"dtype": {"type": "DT_FLOAT"}, "value": {"tensor": {"dtype": "DT_FLOAT", "tensorShape": {"dim": [{"size": "72"}]}}}}}, {"name": "StatefulPartitionedCall/StatefulPartitionedCall/predict/MobilenetV3/expanded_conv_3/squeeze_excite/Conv_1/add/y", "op": "Const", "input": ["^inputs"], "attr": {"value": {"tensor": {"dtype": "DT_FLOAT", "tensorShape": {}}}, "dtype": {"type": "DT_FLOAT"}}}, {"name": "StatefulPartitionedCall/StatefulPartitionedCall/predict/MobilenetV3/Conv/hard_swish/mul_1/y", "op": "Const", "input": ["^inputs"], "attr": {"value": {"tensor": {"dtype": "DT_FLOAT", "tensorShape": {}}}, "dtype": {"type": "DT_FLOAT"}}}, {"name": "StatefulPartitionedCall/StatefulPartitionedCall/predict/hub_input/Mul/y", "op": "Const", "input": ["^inputs"], "attr": {"dtype": {"type": "DT_FLOAT"}, "value": {"tensor": {"dtype": "DT_FLOAT", "tensorShape": {}}}}}, {"name": "StatefulPartitionedCall/StatefulPartitionedCall/predict/hub_input/Sub/y", "op": "Const", "input": ["^inputs"], "attr": {"dtype": {"type": "DT_FLOAT"}, "value": {"tensor": {"dtype": "DT_FLOAT", "tensorShape": {}}}}}, {"name": "StatefulPartitionedCall/StatefulPartitionedCall/predict/MobilenetV3/Conv/hard_swish/add/y", "op": "Const", "input": ["^inputs"], "attr": {"dtype": {"type": "DT_FLOAT"}, "value": {"tensor": {"dtype": "DT_FLOAT", "tensorShape": {}}}}}, {"name": "StatefulPartitionedCall/StatefulPartitionedCall/predict/MobilenetV3/expanded_conv_6/expand/hard_swish/add/y", "op": "Const", "input": ["^inputs"], "attr": {"value": {"tensor": {"dtype": "DT_FLOAT", "tensorShape": {}}}, "dtype": {"type": "DT_FLOAT"}}}, {"name": "StatefulPartitionedCall/StatefulPartitionedCall/predict/MobilenetV3/expanded_conv_6/depthwise/hard_swish/add/y", "op": "Const", "input": ["^inputs"], "attr": {"dtype": {"type": "DT_FLOAT"}, "value": {"tensor": {"dtype": "DT_FLOAT", "tensorShape": {}}}}}, {"name": "StatefulPartitionedCall/StatefulPartitionedCall/predict/MobilenetV3/expanded_conv_10/expand/hard_swish/add/y", "op": "Const", "input": ["^inputs"], "attr": {"dtype": {"type": "DT_FLOAT"}, "value": {"tensor": {"dtype": "DT_FLOAT", "tensorShape": {}}}}}, {"name": "StatefulPartitionedCall/StatefulPartitionedCall/predict/MobilenetV3/expanded_conv_10/depthwise/hard_swish/add/y", "op": "Const", "input": ["^inputs"], "attr": {"value": {"tensor": {"dtype": "DT_FLOAT", "tensorShape": {}}}, "dtype": {"type": "DT_FLOAT"}}}, {"name": "StatefulPartitionedCall/StatefulPartitionedCall/predict/MobilenetV3/expanded_conv_12/expand/hard_swish/add/y", "op": "Const", "input": ["^inputs"], "attr": {"dtype": {"type": "DT_FLOAT"}, "value": {"tensor": {"dtype": "DT_FLOAT", "tensorShape": {}}}}}, {"name": "StatefulPartitionedCall/StatefulPartitionedCall/predict/MobilenetV3/expanded_conv_12/depthwise/hard_swish/add/y", "op": "Const", "input": ["^inputs"], "attr": {"value": {"tensor": {"dtype": "DT_FLOAT", "tensorShape": {}}}, "dtype": {"type": "DT_FLOAT"}}}, {"name": "StatefulPartitionedCall/StatefulPartitionedCall/predict/MobilenetV3/Conv_1/hard_swish/add/y", "op": "Const", "input": ["^inputs"], "attr": {"dtype": {"type": "DT_FLOAT"}, "value": {"tensor": {"dtype": "DT_FLOAT", "tensorShape": {}}}}}, {"name": "Func/StatefulPartitionedCall/StatefulPartitionedCall/input/_534", "op": "Const", "input": ["^inputs"], "attr": {"value": {"tensor": {"dtype": "DT_FLOAT", "tensorShape": {"dim": [{"size": "1"}, {"size": "1"}, {"size": "960"}, {"size": "1280"}]}}}, "dtype": {"type": "DT_FLOAT"}}}, {"name": "Func/StatefulPartitionedCall/StatefulPartitionedCall/input/_535", "op": "Const", "input": ["^inputs"], "attr": {"dtype": {"type": "DT_FLOAT"}, "value": {"tensor": {"dtype": "DT_FLOAT", "tensorShape": {"dim": [{"size": "1280"}]}}}}}, {"name": "StatefulPartitionedCall/StatefulPartitionedCall/predict/MobilenetV3/Conv_2/hard_swish/add/y", "op": "Const", "input": ["^inputs"], "attr": {"value": {"tensor": {"dtype": "DT_FLOAT", "tensorShape": {}}}, "dtype": {"type": "DT_FLOAT"}}}, {"name": "Func/StatefulPartitionedCall/StatefulPartitionedCall/input/_536", "op": "Const", "input": ["^inputs"], "attr": {"value": {"tensor": {"dtype": "DT_FLOAT", "tensorShape": {"dim": [{"size": "1"}, {"size": "1"}, {"size": "1280"}, {"size": "1001"}]}}}, "dtype": {"type": "DT_FLOAT"}}}, {"name": "Func/StatefulPartitionedCall/StatefulPartitionedCall/input/_537", "op": "Const", "input": ["^inputs"], "attr": {"dtype": {"type": "DT_FLOAT"}, "value": {"tensor": {"dtype": "DT_FLOAT", "tensorShape": {"dim": [{"size": "1001"}]}}}}}, {"name": "StatefulPartitionedCall/StatefulPartitionedCall/predict/hub_input/Mul", "op": "Mul", "input": ["inputs", "StatefulPartitionedCall/StatefulPartitionedCall/predict/hub_input/Mul/y"], "attr": {"T": {"type": "DT_FLOAT"}}}, {"name": "StatefulPartitionedCall/StatefulPartitionedCall/predict/hub_input/Sub", "op": "Sub", "input": ["StatefulPartitionedCall/StatefulPartitionedCall/predict/hub_input/Mul", "StatefulPartitionedCall/StatefulPartitionedCall/predict/hub_input/Sub/y"], "attr": {"T": {"type": "DT_FLOAT"}}}, {"name": "StatefulPartitionedCall/StatefulPartitionedCall/predict/MobilenetV3/Conv/BatchNorm/FusedBatchNormV3", "op": "_FusedConv2D", "input": ["StatefulPartitionedCall/StatefulPartitionedCall/predict/hub_input/Sub", "StatefulPartitionedCall/StatefulPartitionedCall/predict/MobilenetV3/Conv/Conv2D_weights", "StatefulPartitionedCall/StatefulPartitionedCall/predict/MobilenetV3/Conv/Conv2D_bn_offset"], "device": "/device:CPU:0", "attr": {"T": {"type": "DT_FLOAT"}, "use_cudnn_on_gpu": {"b": true}, "fused_ops": {"list": {"s": ["Qmlhc0FkZA=="]}}, "explicit_paddings": {"list": {}}, "data_format": {"s": "TkhXQw=="}, "dilations": {"list": {"i": ["1", "1", "1", "1"]}}, "padding": {"s": "U0FNRQ=="}, "num_args": {"i": "1"}, "strides": {"list": {"i": ["1", "2", "2", "1"]}}, "epsilon": {"f": 0.0}}}, {"name": "StatefulPartitionedCall/StatefulPartitionedCall/predict/MobilenetV3/Conv/hard_swish/mul", "op": "Mul", "input": ["StatefulPartitionedCall/StatefulPartitionedCall/predict/MobilenetV3/Conv/hard_swish/mul_1/y", "StatefulPartitionedCall/StatefulPartitionedCall/predict/MobilenetV3/Conv/BatchNorm/FusedBatchNormV3"], "attr": {"T": {"type": "DT_FLOAT"}, "_grappler_ArithmeticOptimizer_MinimizeBroadcasts": {"b": true}}}, {"name": "StatefulPartitionedCall/StatefulPartitionedCall/predict/MobilenetV3/Conv/hard_swish/add", "op": "AddV2", "input": ["StatefulPartitionedCall/StatefulPartitionedCall/predict/MobilenetV3/Conv/BatchNorm/FusedBatchNormV3", "StatefulPartitionedCall/StatefulPartitionedCall/predict/MobilenetV3/Conv/hard_swish/add/y"], "attr": {"T": {"type": "DT_FLOAT"}}}, {"name": "StatefulPartitionedCall/StatefulPartitionedCall/predict/MobilenetV3/Conv/hard_swish/Relu6", "op": "Relu6", "input": ["StatefulPartitionedCall/StatefulPartitionedCall/predict/MobilenetV3/Conv/hard_swish/add"], "attr": {"T": {"type": "DT_FLOAT"}}}, {"name": "StatefulPartitionedCall/StatefulPartitionedCall/predict/MobilenetV3/Conv/hard_swish/mul_1", "op": "Mul", "input": ["StatefulPartitionedCall/StatefulPartitionedCall/predict/MobilenetV3/Conv/hard_swish/mul", "StatefulPartitionedCall/StatefulPartitionedCall/predict/MobilenetV3/Conv/hard_swish/Relu6"], "attr": {"_grappler_ArithmeticOptimizer_MinimizeBroadcasts": {"b": true}, "T": {"type": "DT_FLOAT"}}}, {"name": "StatefulPartitionedCall/StatefulPartitionedCall/predict/MobilenetV3/expanded_conv/depthwise/depthwise", "op": "FusedDepthwiseConv2dNative", "input": ["StatefulPartitionedCall/StatefulPartitionedCall/predict/MobilenetV3/Conv/hard_swish/mul_1", "StatefulPartitionedCall/StatefulPartitionedCall/predict/MobilenetV3/expanded_conv/depthwise/depthwise_weights", "StatefulPartitionedCall/StatefulPartitionedCall/predict/MobilenetV3/expanded_conv/depthwise/depthwise_bn_offset"], "attr": {"num_args": {"i": "1"}, "explicit_paddings": {"list": {}}, "T": {"type": "DT_FLOAT"}, "padding": {"s": "U0FNRQ=="}, "data_format": {"s": "TkhXQw=="}, "dilations": {"list": {"i": ["1", "1", "1", "1"]}}, "strides": {"list": {"i": ["1", "1", "1", "1"]}}, "fused_ops": {"list": {"s": ["Qmlhc0FkZA==", "UmVsdQ=="]}}}}, {"name": "StatefulPartitionedCall/StatefulPartitionedCall/predict/MobilenetV3/expanded_conv/project/BatchNorm/FusedBatchNormV3", "op": "_FusedConv2D", "input": ["StatefulPartitionedCall/StatefulPartitionedCall/predict/MobilenetV3/expanded_conv/depthwise/depthwise", "StatefulPartitionedCall/StatefulPartitionedCall/predict/MobilenetV3/expanded_conv/project/Conv2D_weights", "StatefulPartitionedCall/StatefulPartitionedCall/predict/MobilenetV3/expanded_conv/project/Conv2D_bn_offset"], "device": "/device:CPU:0", "attr": {"num_args": {"i": "1"}, "fused_ops": {"list": {"s": ["Qmlhc0FkZA=="]}}, "T": {"type": "DT_FLOAT"}, "padding": {"s": "U0FNRQ=="}, "strides": {"list": {"i": ["1", "1", "1", "1"]}}, "use_cudnn_on_gpu": {"b": true}, "explicit_paddings": {"list": {}}, "dilations": {"list": {"i": ["1", "1", "1", "1"]}}, "epsilon": {"f": 0.0}, "data_format": {"s": "TkhXQw=="}}}, {"name": "StatefulPartitionedCall/StatefulPartitionedCall/predict/MobilenetV3/expanded_conv/add", "op": "AddV2", "input": ["StatefulPartitionedCall/StatefulPartitionedCall/predict/MobilenetV3/expanded_conv/project/BatchNorm/FusedBatchNormV3", "StatefulPartitionedCall/StatefulPartitionedCall/predict/MobilenetV3/Conv/hard_swish/mul_1"], "attr": {"T": {"type": "DT_FLOAT"}}}, {"name": "StatefulPartitionedCall/StatefulPartitionedCall/predict/MobilenetV3/expanded_conv_1/expand/Relu", "op": "_FusedConv2D", "input": ["StatefulPartitionedCall/StatefulPartitionedCall/predict/MobilenetV3/expanded_conv/add", "StatefulPartitionedCall/StatefulPartitionedCall/predict/MobilenetV3/expanded_conv_1/expand/Conv2D_weights", "StatefulPartitionedCall/StatefulPartitionedCall/predict/MobilenetV3/expanded_conv_1/expand/Conv2D_bn_offset"], "device": "/device:CPU:0", "attr": {"explicit_paddings": {"list": {}}, "dilations": {"list": {"i": ["1", "1", "1", "1"]}}, "padding": {"s": "U0FNRQ=="}, "epsilon": {"f": 0.0}, "num_args": {"i": "1"}, "T": {"type": "DT_FLOAT"}, "use_cudnn_on_gpu": {"b": true}, "strides": {"list": {"i": ["1", "1", "1", "1"]}}, "fused_ops": {"list": {"s": ["Qmlhc0FkZA==", "UmVsdQ=="]}}, "data_format": {"s": "TkhXQw=="}}}, {"name": "StatefulPartitionedCall/StatefulPartitionedCall/predict/MobilenetV3/expanded_conv_1/depthwise/depthwise", "op": "FusedDepthwiseConv2dNative", "input": ["StatefulPartitionedCall/StatefulPartitionedCall/predict/MobilenetV3/expanded_conv_1/expand/Relu", "StatefulPartitionedCall/StatefulPartitionedCall/predict/MobilenetV3/expanded_conv_1/depthwise/depthwise_weights", "StatefulPartitionedCall/StatefulPartitionedCall/predict/MobilenetV3/expanded_conv_1/depthwise/depthwise_bn_offset"], "attr": {"fused_ops": {"list": {"s": ["Qmlhc0FkZA==", "UmVsdQ=="]}}, "dilations": {"list": {"i": ["1", "1", "1", "1"]}}, "strides": {"list": {"i": ["1", "2", "2", "1"]}}, "explicit_paddings": {"list": {}}, "data_format": {"s": "TkhXQw=="}, "padding": {"s": "U0FNRQ=="}, "T": {"type": "DT_FLOAT"}, "num_args": {"i": "1"}}}, {"name": "StatefulPartitionedCall/StatefulPartitionedCall/predict/MobilenetV3/expanded_conv_1/project/BatchNorm/FusedBatchNormV3", "op": "_FusedConv2D", "input": ["StatefulPartitionedCall/StatefulPartitionedCall/predict/MobilenetV3/expanded_conv_1/depthwise/depthwise", "StatefulPartitionedCall/StatefulPartitionedCall/predict/MobilenetV3/expanded_conv_1/project/Conv2D_weights", "StatefulPartitionedCall/StatefulPartitionedCall/predict/MobilenetV3/expanded_conv_1/project/Conv2D_bn_offset"], "device": "/device:CPU:0", "attr": {"explicit_paddings": {"list": {}}, "padding": {"s": "U0FNRQ=="}, "T": {"type": "DT_FLOAT"}, "epsilon": {"f": 0.0}, "data_format": {"s": "TkhXQw=="}, "fused_ops": {"list": {"s": ["Qmlhc0FkZA=="]}}, "use_cudnn_on_gpu": {"b": true}, "dilations": {"list": {"i": ["1", "1", "1", "1"]}}, "strides": {"list": {"i": ["1", "1", "1", "1"]}}, "num_args": {"i": "1"}}}, {"name": "StatefulPartitionedCall/StatefulPartitionedCall/predict/MobilenetV3/expanded_conv_2/expand/Relu", "op": "_FusedConv2D", "input": ["StatefulPartitionedCall/StatefulPartitionedCall/predict/MobilenetV3/expanded_conv_1/project/BatchNorm/FusedBatchNormV3", "StatefulPartitionedCall/StatefulPartitionedCall/predict/MobilenetV3/expanded_conv_2/expand/Conv2D_weights", "StatefulPartitionedCall/StatefulPartitionedCall/predict/MobilenetV3/expanded_conv_2/expand/Conv2D_bn_offset"], "device": "/device:CPU:0", "attr": {"use_cudnn_on_gpu": {"b": true}, "epsilon": {"f": 0.0}, "num_args": {"i": "1"}, "dilations": {"list": {"i": ["1", "1", "1", "1"]}}, "explicit_paddings": {"list": {}}, "padding": {"s": "U0FNRQ=="}, "fused_ops": {"list": {"s": ["Qmlhc0FkZA==", "UmVsdQ=="]}}, "strides": {"list": {"i": ["1", "1", "1", "1"]}}, "T": {"type": "DT_FLOAT"}, "data_format": {"s": "TkhXQw=="}}}, {"name": "StatefulPartitionedCall/StatefulPartitionedCall/predict/MobilenetV3/expanded_conv_2/depthwise/depthwise", "op": "FusedDepthwiseConv2dNative", "input": ["StatefulPartitionedCall/StatefulPartitionedCall/predict/MobilenetV3/expanded_conv_2/expand/Relu", "StatefulPartitionedCall/StatefulPartitionedCall/predict/MobilenetV3/expanded_conv_2/depthwise/depthwise_weights", "StatefulPartitionedCall/StatefulPartitionedCall/predict/MobilenetV3/expanded_conv_2/depthwise/depthwise_bn_offset"], "attr": {"num_args": {"i": "1"}, "padding": {"s": "U0FNRQ=="}, "fused_ops": {"list": {"s": ["Qmlhc0FkZA==", "UmVsdQ=="]}}, "explicit_paddings": {"list": {}}, "T": {"type": "DT_FLOAT"}, "dilations": {"list": {"i": ["1", "1", "1", "1"]}}, "data_format": {"s": "TkhXQw=="}, "strides": {"list": {"i": ["1", "1", "1", "1"]}}}}, {"name": "StatefulPartitionedCall/StatefulPartitionedCall/predict/MobilenetV3/expanded_conv_2/project/BatchNorm/FusedBatchNormV3", "op": "_FusedConv2D", "input": ["StatefulPartitionedCall/StatefulPartitionedCall/predict/MobilenetV3/expanded_conv_2/depthwise/depthwise", "StatefulPartitionedCall/StatefulPartitionedCall/predict/MobilenetV3/expanded_conv_2/project/Conv2D_weights", "StatefulPartitionedCall/StatefulPartitionedCall/predict/MobilenetV3/expanded_conv_2/project/Conv2D_bn_offset"], "device": "/device:CPU:0", "attr": {"data_format": {"s": "TkhXQw=="}, "padding": {"s": "U0FNRQ=="}, "epsilon": {"f": 0.0}, "fused_ops": {"list": {"s": ["Qmlhc0FkZA=="]}}, "use_cudnn_on_gpu": {"b": true}, "T": {"type": "DT_FLOAT"}, "explicit_paddings": {"list": {}}, "dilations": {"list": {"i": ["1", "1", "1", "1"]}}, "strides": {"list": {"i": ["1", "1", "1", "1"]}}, "num_args": {"i": "1"}}}, {"name": "StatefulPartitionedCall/StatefulPartitionedCall/predict/MobilenetV3/expanded_conv_2/add", "op": "AddV2", "input": ["StatefulPartitionedCall/StatefulPartitionedCall/predict/MobilenetV3/expanded_conv_2/project/BatchNorm/FusedBatchNormV3", "StatefulPartitionedCall/StatefulPartitionedCall/predict/MobilenetV3/expanded_conv_1/project/BatchNorm/FusedBatchNormV3"], "attr": {"T": {"type": "DT_FLOAT"}}}, {"name": "StatefulPartitionedCall/StatefulPartitionedCall/predict/MobilenetV3/expanded_conv_3/expand/Relu", "op": "_FusedConv2D", "input": ["StatefulPartitionedCall/StatefulPartitionedCall/predict/MobilenetV3/expanded_conv_2/add", "StatefulPartitionedCall/StatefulPartitionedCall/predict/MobilenetV3/expanded_conv_3/expand/Conv2D_weights", "StatefulPartitionedCall/StatefulPartitionedCall/predict/MobilenetV3/expanded_conv_3/expand/Conv2D_bn_offset"], "device": "/device:CPU:0", "attr": {"num_args": {"i": "1"}, "epsilon": {"f": 0.0}, "strides": {"list": {"i": ["1", "1", "1", "1"]}}, "explicit_paddings": {"list": {}}, "padding": {"s": "U0FNRQ=="}, "T": {"type": "DT_FLOAT"}, "fused_ops": {"list": {"s": ["Qmlhc0FkZA==", "UmVsdQ=="]}}, "use_cudnn_on_gpu": {"b": true}, "dilations": {"list": {"i": ["1", "1", "1", "1"]}}, "data_format": {"s": "TkhXQw=="}}}, {"name": "StatefulPartitionedCall/StatefulPartitionedCall/predict/MobilenetV3/expanded_conv_3/depthwise/depthwise", "op": "FusedDepthwiseConv2dNative", "input": ["StatefulPartitionedCall/StatefulPartitionedCall/predict/MobilenetV3/expanded_conv_3/expand/Relu", "StatefulPartitionedCall/StatefulPartitionedCall/predict/MobilenetV3/expanded_conv_3/depthwise/depthwise_weights", "StatefulPartitionedCall/StatefulPartitionedCall/predict/MobilenetV3/expanded_conv_3/depthwise/depthwise_bn_offset"], "attr": {"data_format": {"s": "TkhXQw=="}, "num_args": {"i": "1"}, "fused_ops": {"list": {"s": ["Qmlhc0FkZA==", "UmVsdQ=="]}}, "explicit_paddings": {"list": {}}, "padding": {"s": "U0FNRQ=="}, "T": {"type": "DT_FLOAT"}, "dilations": {"list": {"i": ["1", "1", "1", "1"]}}, "strides": {"list": {"i": ["1", "2", "2", "1"]}}}}, {"name": "StatefulPartitionedCall/StatefulPartitionedCall/predict/MobilenetV3/expanded_conv_3/squeeze_excite/Mean", "op": "Mean", "input": ["StatefulPartitionedCall/StatefulPartitionedCall/predict/MobilenetV3/expanded_conv_3/depthwise/depthwise", "StatefulPartitionedCall/StatefulPartitionedCall/predict/MobilenetV3/expanded_conv_3/squeeze_excite/Mean/reduction_indices"], "attr": {"Tidx": {"type": "DT_INT32"}, "T": {"type": "DT_FLOAT"}, "keep_dims": {"b": true}}}, {"name": "StatefulPartitionedCall/StatefulPartitionedCall/predict/MobilenetV3/expanded_conv_3/squeeze_excite/Conv/Relu", "op": "_FusedConv2D", "input": ["StatefulPartitionedCall/StatefulPartitionedCall/predict/MobilenetV3/expanded_conv_3/squeeze_excite/Mean", "Func/StatefulPartitionedCall/StatefulPartitionedCall/input/_327", "Func/StatefulPartitionedCall/StatefulPartitionedCall/input/_328"], "device": "/device:CPU:0", "attr": {"explicit_paddings": {"list": {}}, "dilations": {"list": {"i": ["1", "1", "1", "1"]}}, "strides": {"list": {"i": ["1", "1", "1", "1"]}}, "fused_ops": {"list": {"s": ["Qmlhc0FkZA==", "UmVsdQ=="]}}, "epsilon": {"f": 0.0}, "use_cudnn_on_gpu": {"b": true}, "padding": {"s": "U0FNRQ=="}, "data_format": {"s": "TkhXQw=="}, "T": {"type": "DT_FLOAT"}, "num_args": {"i": "1"}}}, {"name": "StatefulPartitionedCall/StatefulPartitionedCall/predict/MobilenetV3/expanded_conv_3/squeeze_excite/Conv_1/BiasAdd", "op": "_FusedConv2D", "input": ["StatefulPartitionedCall/StatefulPartitionedCall/predict/MobilenetV3/expanded_conv_3/squeeze_excite/Conv/Relu", "Func/StatefulPartitionedCall/StatefulPartitionedCall/input/_329", "Func/StatefulPartitionedCall/StatefulPartitionedCall/input/_330"], "device": "/device:CPU:0", "attr": {"use_cudnn_on_gpu": {"b": true}, "num_args": {"i": "1"}, "T": {"type": "DT_FLOAT"}, "epsilon": {"f": 0.0}, "padding": {"s": "U0FNRQ=="}, "explicit_paddings": {"list": {}}, "dilations": {"list": {"i": ["1", "1", "1", "1"]}}, "fused_ops": {"list": {"s": ["Qmlhc0FkZA=="]}}, "strides": {"list": {"i": ["1", "1", "1", "1"]}}, "data_format": {"s": "TkhXQw=="}}}, {"name": "StatefulPartitionedCall/StatefulPartitionedCall/predict/MobilenetV3/expanded_conv_3/squeeze_excite/Conv_1/add", "op": "AddV2", "input": ["StatefulPartitionedCall/StatefulPartitionedCall/predict/MobilenetV3/expanded_conv_3/squeeze_excite/Conv_1/BiasAdd", "StatefulPartitionedCall/StatefulPartitionedCall/predict/MobilenetV3/expanded_conv_3/squeeze_excite/Conv_1/add/y"], "attr": {"T": {"type": "DT_FLOAT"}}}, {"name": "StatefulPartitionedCall/StatefulPartitionedCall/predict/MobilenetV3/expanded_conv_3/squeeze_excite/Conv_1/Relu6", "op": "Relu6", "input": ["StatefulPartitionedCall/StatefulPartitionedCall/predict/MobilenetV3/expanded_conv_3/squeeze_excite/Conv_1/add"], "attr": {"T": {"type": "DT_FLOAT"}}}, {"name": "StatefulPartitionedCall/StatefulPartitionedCall/predict/MobilenetV3/expanded_conv_3/squeeze_excite/Conv_1/mul", "op": "Mul", "input": ["StatefulPartitionedCall/StatefulPartitionedCall/predict/MobilenetV3/expanded_conv_3/squeeze_excite/Conv_1/mul/y", "StatefulPartitionedCall/StatefulPartitionedCall/predict/MobilenetV3/expanded_conv_3/squeeze_excite/Conv_1/Relu6"], "attr": {"_grappler_ArithmeticOptimizer_MinimizeBroadcasts": {"b": true}, "T": {"type": "DT_FLOAT"}}}, {"name": "StatefulPartitionedCall/StatefulPartitionedCall/predict/MobilenetV3/expanded_conv_3/squeeze_excite/mul", "op": "Mul", "input": ["StatefulPartitionedCall/StatefulPartitionedCall/predict/MobilenetV3/expanded_conv_3/squeeze_excite/Conv_1/mul", "StatefulPartitionedCall/StatefulPartitionedCall/predict/MobilenetV3/expanded_conv_3/depthwise/depthwise"], "attr": {"T": {"type": "DT_FLOAT"}, "_grappler_ArithmeticOptimizer_MinimizeBroadcasts": {"b": true}}}, {"name": "StatefulPartitionedCall/StatefulPartitionedCall/predict/MobilenetV3/expanded_conv_3/project/BatchNorm/FusedBatchNormV3", "op": "_FusedConv2D", "input": ["StatefulPartitionedCall/StatefulPartitionedCall/predict/MobilenetV3/expanded_conv_3/squeeze_excite/mul", "StatefulPartitionedCall/StatefulPartitionedCall/predict/MobilenetV3/expanded_conv_3/project/Conv2D_weights", "StatefulPartitionedCall/StatefulPartitionedCall/predict/MobilenetV3/expanded_conv_3/project/Conv2D_bn_offset"], "device": "/device:CPU:0", "attr": {"fused_ops": {"list": {"s": ["Qmlhc0FkZA=="]}}, "T": {"type": "DT_FLOAT"}, "strides": {"list": {"i": ["1", "1", "1", "1"]}}, "padding": {"s": "U0FNRQ=="}, "data_format": {"s": "TkhXQw=="}, "dilations": {"list": {"i": ["1", "1", "1", "1"]}}, "epsilon": {"f": 0.0}, "explicit_paddings": {"list": {}}, "use_cudnn_on_gpu": {"b": true}, "num_args": {"i": "1"}}}, {"name": "StatefulPartitionedCall/StatefulPartitionedCall/predict/MobilenetV3/expanded_conv_4/expand/Relu", "op": "_FusedConv2D", "input": ["StatefulPartitionedCall/StatefulPartitionedCall/predict/MobilenetV3/expanded_conv_3/project/BatchNorm/FusedBatchNormV3", "StatefulPartitionedCall/StatefulPartitionedCall/predict/MobilenetV3/expanded_conv_4/expand/Conv2D_weights", "StatefulPartitionedCall/StatefulPartitionedCall/predict/MobilenetV3/expanded_conv_4/expand/Conv2D_bn_offset"], "device": "/device:CPU:0", "attr": {"fused_ops": {"list": {"s": ["Qmlhc0FkZA==", "UmVsdQ=="]}}, "num_args": {"i": "1"}, "strides": {"list": {"i": ["1", "1", "1", "1"]}}, "T": {"type": "DT_FLOAT"}, "data_format": {"s": "TkhXQw=="}, "explicit_paddings": {"list": {}}, "epsilon": {"f": 0.0}, "dilations": {"list": {"i": ["1", "1", "1", "1"]}}, "use_cudnn_on_gpu": {"b": true}, "padding": {"s": "U0FNRQ=="}}}, {"name": "StatefulPartitionedCall/StatefulPartitionedCall/predict/MobilenetV3/expanded_conv_4/depthwise/depthwise", "op": "FusedDepthwiseConv2dNative", "input": ["StatefulPartitionedCall/StatefulPartitionedCall/predict/MobilenetV3/expanded_conv_4/expand/Relu", "StatefulPartitionedCall/StatefulPartitionedCall/predict/MobilenetV3/expanded_conv_4/depthwise/depthwise_weights", "StatefulPartitionedCall/StatefulPartitionedCall/predict/MobilenetV3/expanded_conv_4/depthwise/depthwise_bn_offset"], "attr": {"padding": {"s": "U0FNRQ=="}, "dilations": {"list": {"i": ["1", "1", "1", "1"]}}, "explicit_paddings": {"list": {}}, "num_args": {"i": "1"}, "data_format": {"s": "TkhXQw=="}, "T": {"type": "DT_FLOAT"}, "fused_ops": {"list": {"s": ["Qmlhc0FkZA==", "UmVsdQ=="]}}, "strides": {"list": {"i": ["1", "1", "1", "1"]}}}}, {"name": "StatefulPartitionedCall/StatefulPartitionedCall/predict/MobilenetV3/expanded_conv_4/squeeze_excite/Mean", "op": "Mean", "input": ["StatefulPartitionedCall/StatefulPartitionedCall/predict/MobilenetV3/expanded_conv_4/depthwise/depthwise", "StatefulPartitionedCall/StatefulPartitionedCall/predict/MobilenetV3/expanded_conv_4/squeeze_excite/Mean/reduction_indices"], "attr": {"keep_dims": {"b": true}, "Tidx": {"type": "DT_INT32"}, "T": {"type": "DT_FLOAT"}}}, {"name": "StatefulPartitionedCall/StatefulPartitionedCall/predict/MobilenetV3/expanded_conv_4/squeeze_excite/Conv/Relu", "op": "_FusedConv2D", "input": ["StatefulPartitionedCall/StatefulPartitionedCall/predict/MobilenetV3/expanded_conv_4/squeeze_excite/Mean", "Func/StatefulPartitionedCall/StatefulPartitionedCall/input/_346", "Func/StatefulPartitionedCall/StatefulPartitionedCall/input/_347"], "device": "/device:CPU:0", "attr": {"strides": {"list": {"i": ["1", "1", "1", "1"]}}, "num_args": {"i": "1"}, "data_format": {"s": "TkhXQw=="}, "fused_ops": {"list": {"s": ["Qmlhc0FkZA==", "UmVsdQ=="]}}, "use_cudnn_on_gpu": {"b": true}, "epsilon": {"f": 0.0}, "explicit_paddings": {"list": {}}, "T": {"type": "DT_FLOAT"}, "dilations": {"list": {"i": ["1", "1", "1", "1"]}}, "padding": {"s": "U0FNRQ=="}}}, {"name": "StatefulPartitionedCall/StatefulPartitionedCall/predict/MobilenetV3/expanded_conv_4/squeeze_excite/Conv_1/BiasAdd", "op": "_FusedConv2D", "input": ["StatefulPartitionedCall/StatefulPartitionedCall/predict/MobilenetV3/expanded_conv_4/squeeze_excite/Conv/Relu", "Func/StatefulPartitionedCall/StatefulPartitionedCall/input/_348", "Func/StatefulPartitionedCall/StatefulPartitionedCall/input/_349"], "device": "/device:CPU:0", "attr": {"data_format": {"s": "TkhXQw=="}, "T": {"type": "DT_FLOAT"}, "use_cudnn_on_gpu": {"b": true}, "num_args": {"i": "1"}, "fused_ops": {"list": {"s": ["Qmlhc0FkZA=="]}}, "explicit_paddings": {"list": {}}, "dilations": {"list": {"i": ["1", "1", "1", "1"]}}, "epsilon": {"f": 0.0}, "padding": {"s": "U0FNRQ=="}, "strides": {"list": {"i": ["1", "1", "1", "1"]}}}}, {"name": "StatefulPartitionedCall/StatefulPartitionedCall/predict/MobilenetV3/expanded_conv_4/squeeze_excite/Conv_1/add", "op": "AddV2", "input": ["StatefulPartitionedCall/StatefulPartitionedCall/predict/MobilenetV3/expanded_conv_4/squeeze_excite/Conv_1/BiasAdd", "StatefulPartitionedCall/StatefulPartitionedCall/predict/MobilenetV3/expanded_conv_4/squeeze_excite/Conv_1/add/y"], "attr": {"T": {"type": "DT_FLOAT"}}}, {"name": "StatefulPartitionedCall/StatefulPartitionedCall/predict/MobilenetV3/expanded_conv_4/squeeze_excite/Conv_1/Relu6", "op": "Relu6", "input": ["StatefulPartitionedCall/StatefulPartitionedCall/predict/MobilenetV3/expanded_conv_4/squeeze_excite/Conv_1/add"], "attr": {"T": {"type": "DT_FLOAT"}}}, {"name": "StatefulPartitionedCall/StatefulPartitionedCall/predict/MobilenetV3/expanded_conv_4/squeeze_excite/Conv_1/mul", "op": "Mul", "input": ["StatefulPartitionedCall/StatefulPartitionedCall/predict/MobilenetV3/expanded_conv_4/squeeze_excite/Conv_1/mul/y", "StatefulPartitionedCall/StatefulPartitionedCall/predict/MobilenetV3/expanded_conv_4/squeeze_excite/Conv_1/Relu6"], "attr": {"T": {"type": "DT_FLOAT"}, "_grappler_ArithmeticOptimizer_MinimizeBroadcasts": {"b": true}}}, {"name": "StatefulPartitionedCall/StatefulPartitionedCall/predict/MobilenetV3/expanded_conv_4/squeeze_excite/mul", "op": "Mul", "input": ["StatefulPartitionedCall/StatefulPartitionedCall/predict/MobilenetV3/expanded_conv_4/squeeze_excite/Conv_1/mul", "StatefulPartitionedCall/StatefulPartitionedCall/predict/MobilenetV3/expanded_conv_4/depthwise/depthwise"], "attr": {"_grappler_ArithmeticOptimizer_MinimizeBroadcasts": {"b": true}, "T": {"type": "DT_FLOAT"}}}, {"name": "StatefulPartitionedCall/StatefulPartitionedCall/predict/MobilenetV3/expanded_conv_4/project/BatchNorm/FusedBatchNormV3", "op": "_FusedConv2D", "input": ["StatefulPartitionedCall/StatefulPartitionedCall/predict/MobilenetV3/expanded_conv_4/squeeze_excite/mul", "StatefulPartitionedCall/StatefulPartitionedCall/predict/MobilenetV3/expanded_conv_4/project/Conv2D_weights", "StatefulPartitionedCall/StatefulPartitionedCall/predict/MobilenetV3/expanded_conv_4/project/Conv2D_bn_offset"], "device": "/device:CPU:0", "attr": {"explicit_paddings": {"list": {}}, "dilations": {"list": {"i": ["1", "1", "1", "1"]}}, "num_args": {"i": "1"}, "strides": {"list": {"i": ["1", "1", "1", "1"]}}, "use_cudnn_on_gpu": {"b": true}, "padding": {"s": "U0FNRQ=="}, "T": {"type": "DT_FLOAT"}, "fused_ops": {"list": {"s": ["Qmlhc0FkZA=="]}}, "epsilon": {"f": 0.0}, "data_format": {"s": "TkhXQw=="}}}, {"name": "StatefulPartitionedCall/StatefulPartitionedCall/predict/MobilenetV3/expanded_conv_4/add", "op": "AddV2", "input": ["StatefulPartitionedCall/StatefulPartitionedCall/predict/MobilenetV3/expanded_conv_4/project/BatchNorm/FusedBatchNormV3", "StatefulPartitionedCall/StatefulPartitionedCall/predict/MobilenetV3/expanded_conv_3/project/BatchNorm/FusedBatchNormV3"], "attr": {"T": {"type": "DT_FLOAT"}}}, {"name": "StatefulPartitionedCall/StatefulPartitionedCall/predict/MobilenetV3/expanded_conv_5/expand/Relu", "op": "_FusedConv2D", "input": ["StatefulPartitionedCall/StatefulPartitionedCall/predict/MobilenetV3/expanded_conv_4/add", "StatefulPartitionedCall/StatefulPartitionedCall/predict/MobilenetV3/expanded_conv_5/expand/Conv2D_weights", "StatefulPartitionedCall/StatefulPartitionedCall/predict/MobilenetV3/expanded_conv_5/expand/Conv2D_bn_offset"], "device": "/device:CPU:0", "attr": {"data_format": {"s": "TkhXQw=="}, "T": {"type": "DT_FLOAT"}, "explicit_paddings": {"list": {}}, "strides": {"list": {"i": ["1", "1", "1", "1"]}}, "use_cudnn_on_gpu": {"b": true}, "epsilon": {"f": 0.0}, "dilations": {"list": {"i": ["1", "1", "1", "1"]}}, "num_args": {"i": "1"}, "padding": {"s": "U0FNRQ=="}, "fused_ops": {"list": {"s": ["Qmlhc0FkZA==", "UmVsdQ=="]}}}}, {"name": "StatefulPartitionedCall/StatefulPartitionedCall/predict/MobilenetV3/expanded_conv_5/depthwise/depthwise", "op": "FusedDepthwiseConv2dNative", "input": ["StatefulPartitionedCall/StatefulPartitionedCall/predict/MobilenetV3/expanded_conv_5/expand/Relu", "StatefulPartitionedCall/StatefulPartitionedCall/predict/MobilenetV3/expanded_conv_5/depthwise/depthwise_weights", "StatefulPartitionedCall/StatefulPartitionedCall/predict/MobilenetV3/expanded_conv_5/depthwise/depthwise_bn_offset"], "attr": {"data_format": {"s": "TkhXQw=="}, "padding": {"s": "U0FNRQ=="}, "strides": {"list": {"i": ["1", "1", "1", "1"]}}, "dilations": {"list": {"i": ["1", "1", "1", "1"]}}, "explicit_paddings": {"list": {}}, "T": {"type": "DT_FLOAT"}, "num_args": {"i": "1"}, "fused_ops": {"list": {"s": ["Qmlhc0FkZA==", "UmVsdQ=="]}}}}, {"name": "StatefulPartitionedCall/StatefulPartitionedCall/predict/MobilenetV3/expanded_conv_5/squeeze_excite/Mean", "op": "Mean", "input": ["StatefulPartitionedCall/StatefulPartitionedCall/predict/MobilenetV3/expanded_conv_5/depthwise/depthwise", "StatefulPartitionedCall/StatefulPartitionedCall/predict/MobilenetV3/expanded_conv_5/squeeze_excite/Mean/reduction_indices"], "attr": {"Tidx": {"type": "DT_INT32"}, "keep_dims": {"b": true}, "T": {"type": "DT_FLOAT"}}}, {"name": "StatefulPartitionedCall/StatefulPartitionedCall/predict/MobilenetV3/expanded_conv_5/squeeze_excite/Conv/Relu", "op": "_FusedConv2D", "input": ["StatefulPartitionedCall/StatefulPartitionedCall/predict/MobilenetV3/expanded_conv_5/squeeze_excite/Mean", "Func/StatefulPartitionedCall/StatefulPartitionedCall/input/_365", "Func/StatefulPartitionedCall/StatefulPartitionedCall/input/_366"], "device": "/device:CPU:0", "attr": {"epsilon": {"f": 0.0}, "explicit_paddings": {"list": {}}, "strides": {"list": {"i": ["1", "1", "1", "1"]}}, "num_args": {"i": "1"}, "use_cudnn_on_gpu": {"b": true}, "dilations": {"list": {"i": ["1", "1", "1", "1"]}}, "fused_ops": {"list": {"s": ["Qmlhc0FkZA==", "UmVsdQ=="]}}, "data_format": {"s": "TkhXQw=="}, "T": {"type": "DT_FLOAT"}, "padding": {"s": "U0FNRQ=="}}}, {"name": "StatefulPartitionedCall/StatefulPartitionedCall/predict/MobilenetV3/expanded_conv_5/squeeze_excite/Conv_1/BiasAdd", "op": "_FusedConv2D", "input": ["StatefulPartitionedCall/StatefulPartitionedCall/predict/MobilenetV3/expanded_conv_5/squeeze_excite/Conv/Relu", "Func/StatefulPartitionedCall/StatefulPartitionedCall/input/_367", "Func/StatefulPartitionedCall/StatefulPartitionedCall/input/_368"], "device": "/device:CPU:0", "attr": {"num_args": {"i": "1"}, "strides": {"list": {"i": ["1", "1", "1", "1"]}}, "padding": {"s": "U0FNRQ=="}, "data_format": {"s": "TkhXQw=="}, "use_cudnn_on_gpu": {"b": true}, "epsilon": {"f": 0.0}, "fused_ops": {"list": {"s": ["Qmlhc0FkZA=="]}}, "explicit_paddings": {"list": {}}, "T": {"type": "DT_FLOAT"}, "dilations": {"list": {"i": ["1", "1", "1", "1"]}}}}, {"name": "StatefulPartitionedCall/StatefulPartitionedCall/predict/MobilenetV3/expanded_conv_5/squeeze_excite/Conv_1/add", "op": "AddV2", "input": ["StatefulPartitionedCall/StatefulPartitionedCall/predict/MobilenetV3/expanded_conv_5/squeeze_excite/Conv_1/BiasAdd", "StatefulPartitionedCall/StatefulPartitionedCall/predict/MobilenetV3/expanded_conv_5/squeeze_excite/Conv_1/add/y"], "attr": {"T": {"type": "DT_FLOAT"}}}, {"name": "StatefulPartitionedCall/StatefulPartitionedCall/predict/MobilenetV3/expanded_conv_5/squeeze_excite/Conv_1/Relu6", "op": "Relu6", "input": ["StatefulPartitionedCall/StatefulPartitionedCall/predict/MobilenetV3/expanded_conv_5/squeeze_excite/Conv_1/add"], "attr": {"T": {"type": "DT_FLOAT"}}}, {"name": "StatefulPartitionedCall/StatefulPartitionedCall/predict/MobilenetV3/expanded_conv_5/squeeze_excite/Conv_1/mul", "op": "Mul", "input": ["StatefulPartitionedCall/StatefulPartitionedCall/predict/MobilenetV3/expanded_conv_5/squeeze_excite/Conv_1/mul/y", "StatefulPartitionedCall/StatefulPartitionedCall/predict/MobilenetV3/expanded_conv_5/squeeze_excite/Conv_1/Relu6"], "attr": {"T": {"type": "DT_FLOAT"}, "_grappler_ArithmeticOptimizer_MinimizeBroadcasts": {"b": true}}}, {"name": "StatefulPartitionedCall/StatefulPartitionedCall/predict/MobilenetV3/expanded_conv_5/squeeze_excite/mul", "op": "Mul", "input": ["StatefulPartitionedCall/StatefulPartitionedCall/predict/MobilenetV3/expanded_conv_5/squeeze_excite/Conv_1/mul", "StatefulPartitionedCall/StatefulPartitionedCall/predict/MobilenetV3/expanded_conv_5/depthwise/depthwise"], "attr": {"T": {"type": "DT_FLOAT"}, "_grappler_ArithmeticOptimizer_MinimizeBroadcasts": {"b": true}}}, {"name": "StatefulPartitionedCall/StatefulPartitionedCall/predict/MobilenetV3/expanded_conv_5/project/BatchNorm/FusedBatchNormV3", "op": "_FusedConv2D", "input": ["StatefulPartitionedCall/StatefulPartitionedCall/predict/MobilenetV3/expanded_conv_5/squeeze_excite/mul", "StatefulPartitionedCall/StatefulPartitionedCall/predict/MobilenetV3/expanded_conv_5/project/Conv2D_weights", "StatefulPartitionedCall/StatefulPartitionedCall/predict/MobilenetV3/expanded_conv_5/project/Conv2D_bn_offset"], "device": "/device:CPU:0", "attr": {"data_format": {"s": "TkhXQw=="}, "padding": {"s": "U0FNRQ=="}, "explicit_paddings": {"list": {}}, "fused_ops": {"list": {"s": ["Qmlhc0FkZA=="]}}, "epsilon": {"f": 0.0}, "use_cudnn_on_gpu": {"b": true}, "T": {"type": "DT_FLOAT"}, "num_args": {"i": "1"}, "strides": {"list": {"i": ["1", "1", "1", "1"]}}, "dilations": {"list": {"i": ["1", "1", "1", "1"]}}}}, {"name": "StatefulPartitionedCall/StatefulPartitionedCall/predict/MobilenetV3/expanded_conv_5/add", "op": "AddV2", "input": ["StatefulPartitionedCall/StatefulPartitionedCall/predict/MobilenetV3/expanded_conv_5/project/BatchNorm/FusedBatchNormV3", "StatefulPartitionedCall/StatefulPartitionedCall/predict/MobilenetV3/expanded_conv_4/add"], "attr": {"T": {"type": "DT_FLOAT"}}}, {"name": "StatefulPartitionedCall/StatefulPartitionedCall/predict/MobilenetV3/expanded_conv_6/expand/BatchNorm/FusedBatchNormV3", "op": "_FusedConv2D", "input": ["StatefulPartitionedCall/StatefulPartitionedCall/predict/MobilenetV3/expanded_conv_5/add", "StatefulPartitionedCall/StatefulPartitionedCall/predict/MobilenetV3/expanded_conv_6/expand/Conv2D_weights", "StatefulPartitionedCall/StatefulPartitionedCall/predict/MobilenetV3/expanded_conv_6/expand/Conv2D_bn_offset"], "device": "/device:CPU:0", "attr": {"explicit_paddings": {"list": {}}, "T": {"type": "DT_FLOAT"}, "num_args": {"i": "1"}, "data_format": {"s": "TkhXQw=="}, "dilations": {"list": {"i": ["1", "1", "1", "1"]}}, "padding": {"s": "U0FNRQ=="}, "epsilon": {"f": 0.0}, "strides": {"list": {"i": ["1", "1", "1", "1"]}}, "use_cudnn_on_gpu": {"b": true}, "fused_ops": {"list": {"s": ["Qmlhc0FkZA=="]}}}}, {"name": "StatefulPartitionedCall/StatefulPartitionedCall/predict/MobilenetV3/expanded_conv_6/expand/hard_swish/mul", "op": "Mul", "input": ["StatefulPartitionedCall/StatefulPartitionedCall/predict/MobilenetV3/expanded_conv_6/expand/hard_swish/mul_1/y", "StatefulPartitionedCall/StatefulPartitionedCall/predict/MobilenetV3/expanded_conv_6/expand/BatchNorm/FusedBatchNormV3"], "attr": {"_grappler_ArithmeticOptimizer_MinimizeBroadcasts": {"b": true}, "T": {"type": "DT_FLOAT"}}}, {"name": "StatefulPartitionedCall/StatefulPartitionedCall/predict/MobilenetV3/expanded_conv_6/expand/hard_swish/add", "op": "AddV2", "input": ["StatefulPartitionedCall/StatefulPartitionedCall/predict/MobilenetV3/expanded_conv_6/expand/BatchNorm/FusedBatchNormV3", "StatefulPartitionedCall/StatefulPartitionedCall/predict/MobilenetV3/expanded_conv_6/expand/hard_swish/add/y"], "attr": {"T": {"type": "DT_FLOAT"}}}, {"name": "StatefulPartitionedCall/StatefulPartitionedCall/predict/MobilenetV3/expanded_conv_6/expand/hard_swish/Relu6", "op": "Relu6", "input": ["StatefulPartitionedCall/StatefulPartitionedCall/predict/MobilenetV3/expanded_conv_6/expand/hard_swish/add"], "attr": {"T": {"type": "DT_FLOAT"}}}, {"name": "StatefulPartitionedCall/StatefulPartitionedCall/predict/MobilenetV3/expanded_conv_6/expand/hard_swish/mul_1", "op": "Mul", "input": ["StatefulPartitionedCall/StatefulPartitionedCall/predict/MobilenetV3/expanded_conv_6/expand/hard_swish/mul", "StatefulPartitionedCall/StatefulPartitionedCall/predict/MobilenetV3/expanded_conv_6/expand/hard_swish/Relu6"], "attr": {"_grappler_ArithmeticOptimizer_MinimizeBroadcasts": {"b": true}, "T": {"type": "DT_FLOAT"}}}, {"name": "StatefulPartitionedCall/StatefulPartitionedCall/predict/MobilenetV3/expanded_conv_6/depthwise/depthwise", "op": "FusedDepthwiseConv2dNative", "input": ["StatefulPartitionedCall/StatefulPartitionedCall/predict/MobilenetV3/expanded_conv_6/expand/hard_swish/mul_1", "StatefulPartitionedCall/StatefulPartitionedCall/predict/MobilenetV3/expanded_conv_6/depthwise/depthwise_weights", "StatefulPartitionedCall/StatefulPartitionedCall/predict/MobilenetV3/expanded_conv_6/depthwise/depthwise_bn_offset"], "attr": {"padding": {"s": "U0FNRQ=="}, "T": {"type": "DT_FLOAT"}, "num_args": {"i": "1"}, "data_format": {"s": "TkhXQw=="}, "explicit_paddings": {"list": {}}, "dilations": {"list": {"i": ["1", "1", "1", "1"]}}, "strides": {"list": {"i": ["1", "2", "2", "1"]}}, "fused_ops": {"list": {"s": ["Qmlhc0FkZA=="]}}}}, {"name": "StatefulPartitionedCall/StatefulPartitionedCall/predict/MobilenetV3/expanded_conv_6/depthwise/hard_swish/mul", "op": "Mul", "input": ["StatefulPartitionedCall/StatefulPartitionedCall/predict/MobilenetV3/expanded_conv_6/depthwise/hard_swish/mul_1/y", "StatefulPartitionedCall/StatefulPartitionedCall/predict/MobilenetV3/expanded_conv_6/depthwise/depthwise"], "attr": {"T": {"type": "DT_FLOAT"}, "_grappler_ArithmeticOptimizer_MinimizeBroadcasts": {"b": true}}}, {"name": "StatefulPartitionedCall/StatefulPartitionedCall/predict/MobilenetV3/expanded_conv_6/depthwise/hard_swish/add", "op": "AddV2", "input": ["StatefulPartitionedCall/StatefulPartitionedCall/predict/MobilenetV3/expanded_conv_6/depthwise/depthwise", "StatefulPartitionedCall/StatefulPartitionedCall/predict/MobilenetV3/expanded_conv_6/depthwise/hard_swish/add/y"], "attr": {"T": {"type": "DT_FLOAT"}}}, {"name": "StatefulPartitionedCall/StatefulPartitionedCall/predict/MobilenetV3/expanded_conv_6/depthwise/hard_swish/Relu6", "op": "Relu6", "input": ["StatefulPartitionedCall/StatefulPartitionedCall/predict/MobilenetV3/expanded_conv_6/depthwise/hard_swish/add"], "attr": {"T": {"type": "DT_FLOAT"}}}, {"name": "StatefulPartitionedCall/StatefulPartitionedCall/predict/MobilenetV3/expanded_conv_6/depthwise/hard_swish/mul_1", "op": "Mul", "input": ["StatefulPartitionedCall/StatefulPartitionedCall/predict/MobilenetV3/expanded_conv_6/depthwise/hard_swish/mul", "StatefulPartitionedCall/StatefulPartitionedCall/predict/MobilenetV3/expanded_conv_6/depthwise/hard_swish/Relu6"], "attr": {"_grappler_ArithmeticOptimizer_MinimizeBroadcasts": {"b": true}, "T": {"type": "DT_FLOAT"}}}, {"name": "StatefulPartitionedCall/StatefulPartitionedCall/predict/MobilenetV3/expanded_conv_6/project/BatchNorm/FusedBatchNormV3", "op": "_FusedConv2D", "input": ["StatefulPartitionedCall/StatefulPartitionedCall/predict/MobilenetV3/expanded_conv_6/depthwise/hard_swish/mul_1", "StatefulPartitionedCall/StatefulPartitionedCall/predict/MobilenetV3/expanded_conv_6/project/Conv2D_weights", "StatefulPartitionedCall/StatefulPartitionedCall/predict/MobilenetV3/expanded_conv_6/project/Conv2D_bn_offset"], "device": "/device:CPU:0", "attr": {"padding": {"s": "U0FNRQ=="}, "T": {"type": "DT_FLOAT"}, "dilations": {"list": {"i": ["1", "1", "1", "1"]}}, "epsilon": {"f": 0.0}, "explicit_paddings": {"list": {}}, "num_args": {"i": "1"}, "fused_ops": {"list": {"s": ["Qmlhc0FkZA=="]}}, "data_format": {"s": "TkhXQw=="}, "strides": {"list": {"i": ["1", "1", "1", "1"]}}, "use_cudnn_on_gpu": {"b": true}}}, {"name": "StatefulPartitionedCall/StatefulPartitionedCall/predict/MobilenetV3/expanded_conv_7/expand/BatchNorm/FusedBatchNormV3", "op": "_FusedConv2D", "input": ["StatefulPartitionedCall/StatefulPartitionedCall/predict/MobilenetV3/expanded_conv_6/project/BatchNorm/FusedBatchNormV3", "StatefulPartitionedCall/StatefulPartitionedCall/predict/MobilenetV3/expanded_conv_7/expand/Conv2D_weights", "StatefulPartitionedCall/StatefulPartitionedCall/predict/MobilenetV3/expanded_conv_7/expand/Conv2D_bn_offset"], "device": "/device:CPU:0", "attr": {"explicit_paddings": {"list": {}}, "num_args": {"i": "1"}, "epsilon": {"f": 0.0}, "T": {"type": "DT_FLOAT"}, "dilations": {"list": {"i": ["1", "1", "1", "1"]}}, "strides": {"list": {"i": ["1", "1", "1", "1"]}}, "fused_ops": {"list": {"s": ["Qmlhc0FkZA=="]}}, "data_format": {"s": "TkhXQw=="}, "padding": {"s": "U0FNRQ=="}, "use_cudnn_on_gpu": {"b": true}}}, {"name": "StatefulPartitionedCall/StatefulPartitionedCall/predict/MobilenetV3/expanded_conv_7/expand/hard_swish/mul", "op": "Mul", "input": ["StatefulPartitionedCall/StatefulPartitionedCall/predict/MobilenetV3/expanded_conv_7/expand/hard_swish/mul_1/y", "StatefulPartitionedCall/StatefulPartitionedCall/predict/MobilenetV3/expanded_conv_7/expand/BatchNorm/FusedBatchNormV3"], "attr": {"_grappler_ArithmeticOptimizer_MinimizeBroadcasts": {"b": true}, "T": {"type": "DT_FLOAT"}}}, {"name": "StatefulPartitionedCall/StatefulPartitionedCall/predict/MobilenetV3/expanded_conv_7/expand/hard_swish/add", "op": "AddV2", "input": ["StatefulPartitionedCall/StatefulPartitionedCall/predict/MobilenetV3/expanded_conv_7/expand/BatchNorm/FusedBatchNormV3", "StatefulPartitionedCall/StatefulPartitionedCall/predict/MobilenetV3/expanded_conv_7/expand/hard_swish/add/y"], "attr": {"T": {"type": "DT_FLOAT"}}}, {"name": "StatefulPartitionedCall/StatefulPartitionedCall/predict/MobilenetV3/expanded_conv_7/expand/hard_swish/Relu6", "op": "Relu6", "input": ["StatefulPartitionedCall/StatefulPartitionedCall/predict/MobilenetV3/expanded_conv_7/expand/hard_swish/add"], "attr": {"T": {"type": "DT_FLOAT"}}}, {"name": "StatefulPartitionedCall/StatefulPartitionedCall/predict/MobilenetV3/expanded_conv_7/expand/hard_swish/mul_1", "op": "Mul", "input": ["StatefulPartitionedCall/StatefulPartitionedCall/predict/MobilenetV3/expanded_conv_7/expand/hard_swish/mul", "StatefulPartitionedCall/StatefulPartitionedCall/predict/MobilenetV3/expanded_conv_7/expand/hard_swish/Relu6"], "attr": {"T": {"type": "DT_FLOAT"}, "_grappler_ArithmeticOptimizer_MinimizeBroadcasts": {"b": true}}}, {"name": "StatefulPartitionedCall/StatefulPartitionedCall/predict/MobilenetV3/expanded_conv_7/depthwise/depthwise", "op": "FusedDepthwiseConv2dNative", "input": ["StatefulPartitionedCall/StatefulPartitionedCall/predict/MobilenetV3/expanded_conv_7/expand/hard_swish/mul_1", "StatefulPartitionedCall/StatefulPartitionedCall/predict/MobilenetV3/expanded_conv_7/depthwise/depthwise_weights", "StatefulPartitionedCall/StatefulPartitionedCall/predict/MobilenetV3/expanded_conv_7/depthwise/depthwise_bn_offset"], "attr": {"fused_ops": {"list": {"s": ["Qmlhc0FkZA=="]}}, "explicit_paddings": {"list": {}}, "padding": {"s": "U0FNRQ=="}, "num_args": {"i": "1"}, "strides": {"list": {"i": ["1", "1", "1", "1"]}}, "T": {"type": "DT_FLOAT"}, "dilations": {"list": {"i": ["1", "1", "1", "1"]}}, "data_format": {"s": "TkhXQw=="}}}, {"name": "StatefulPartitionedCall/StatefulPartitionedCall/predict/MobilenetV3/expanded_conv_7/depthwise/hard_swish/mul", "op": "Mul", "input": ["StatefulPartitionedCall/StatefulPartitionedCall/predict/MobilenetV3/expanded_conv_7/depthwise/hard_swish/mul_1/y", "StatefulPartitionedCall/StatefulPartitionedCall/predict/MobilenetV3/expanded_conv_7/depthwise/depthwise"], "attr": {"_grappler_ArithmeticOptimizer_MinimizeBroadcasts": {"b": true}, "T": {"type": "DT_FLOAT"}}}, {"name": "StatefulPartitionedCall/StatefulPartitionedCall/predict/MobilenetV3/expanded_conv_7/depthwise/hard_swish/add", "op": "AddV2", "input": ["StatefulPartitionedCall/StatefulPartitionedCall/predict/MobilenetV3/expanded_conv_7/depthwise/depthwise", "StatefulPartitionedCall/StatefulPartitionedCall/predict/MobilenetV3/expanded_conv_7/depthwise/hard_swish/add/y"], "attr": {"T": {"type": "DT_FLOAT"}}}, {"name": "StatefulPartitionedCall/StatefulPartitionedCall/predict/MobilenetV3/expanded_conv_7/depthwise/hard_swish/Relu6", "op": "Relu6", "input": ["StatefulPartitionedCall/StatefulPartitionedCall/predict/MobilenetV3/expanded_conv_7/depthwise/hard_swish/add"], "attr": {"T": {"type": "DT_FLOAT"}}}, {"name": "StatefulPartitionedCall/StatefulPartitionedCall/predict/MobilenetV3/expanded_conv_7/depthwise/hard_swish/mul_1", "op": "Mul", "input": ["StatefulPartitionedCall/StatefulPartitionedCall/predict/MobilenetV3/expanded_conv_7/depthwise/hard_swish/mul", "StatefulPartitionedCall/StatefulPartitionedCall/predict/MobilenetV3/expanded_conv_7/depthwise/hard_swish/Relu6"], "attr": {"_grappler_ArithmeticOptimizer_MinimizeBroadcasts": {"b": true}, "T": {"type": "DT_FLOAT"}}}, {"name": "StatefulPartitionedCall/StatefulPartitionedCall/predict/MobilenetV3/expanded_conv_7/project/BatchNorm/FusedBatchNormV3", "op": "_FusedConv2D", "input": ["StatefulPartitionedCall/StatefulPartitionedCall/predict/MobilenetV3/expanded_conv_7/depthwise/hard_swish/mul_1", "StatefulPartitionedCall/StatefulPartitionedCall/predict/MobilenetV3/expanded_conv_7/project/Conv2D_weights", "StatefulPartitionedCall/StatefulPartitionedCall/predict/MobilenetV3/expanded_conv_7/project/Conv2D_bn_offset"], "device": "/device:CPU:0", "attr": {"padding": {"s": "U0FNRQ=="}, "num_args": {"i": "1"}, "epsilon": {"f": 0.0}, "strides": {"list": {"i": ["1", "1", "1", "1"]}}, "fused_ops": {"list": {"s": ["Qmlhc0FkZA=="]}}, "explicit_paddings": {"list": {}}, "use_cudnn_on_gpu": {"b": true}, "data_format": {"s": "TkhXQw=="}, "dilations": {"list": {"i": ["1", "1", "1", "1"]}}, "T": {"type": "DT_FLOAT"}}}, {"name": "StatefulPartitionedCall/StatefulPartitionedCall/predict/MobilenetV3/expanded_conv_7/add", "op": "AddV2", "input": ["StatefulPartitionedCall/StatefulPartitionedCall/predict/MobilenetV3/expanded_conv_7/project/BatchNorm/FusedBatchNormV3", "StatefulPartitionedCall/StatefulPartitionedCall/predict/MobilenetV3/expanded_conv_6/project/BatchNorm/FusedBatchNormV3"], "attr": {"T": {"type": "DT_FLOAT"}}}, {"name": "StatefulPartitionedCall/StatefulPartitionedCall/predict/MobilenetV3/expanded_conv_8/expand/BatchNorm/FusedBatchNormV3", "op": "_FusedConv2D", "input": ["StatefulPartitionedCall/StatefulPartitionedCall/predict/MobilenetV3/expanded_conv_7/add", "StatefulPartitionedCall/StatefulPartitionedCall/predict/MobilenetV3/expanded_conv_8/expand/Conv2D_weights", "StatefulPartitionedCall/StatefulPartitionedCall/predict/MobilenetV3/expanded_conv_8/expand/Conv2D_bn_offset"], "device": "/device:CPU:0", "attr": {"padding": {"s": "U0FNRQ=="}, "use_cudnn_on_gpu": {"b": true}, "fused_ops": {"list": {"s": ["Qmlhc0FkZA=="]}}, "data_format": {"s": "TkhXQw=="}, "strides": {"list": {"i": ["1", "1", "1", "1"]}}, "num_args": {"i": "1"}, "epsilon": {"f": 0.0}, "dilations": {"list": {"i": ["1", "1", "1", "1"]}}, "explicit_paddings": {"list": {}}, "T": {"type": "DT_FLOAT"}}}, {"name": "StatefulPartitionedCall/StatefulPartitionedCall/predict/MobilenetV3/expanded_conv_8/expand/hard_swish/mul", "op": "Mul", "input": ["StatefulPartitionedCall/StatefulPartitionedCall/predict/MobilenetV3/expanded_conv_8/expand/hard_swish/mul_1/y", "StatefulPartitionedCall/StatefulPartitionedCall/predict/MobilenetV3/expanded_conv_8/expand/BatchNorm/FusedBatchNormV3"], "attr": {"_grappler_ArithmeticOptimizer_MinimizeBroadcasts": {"b": true}, "T": {"type": "DT_FLOAT"}}}, {"name": "StatefulPartitionedCall/StatefulPartitionedCall/predict/MobilenetV3/expanded_conv_8/expand/hard_swish/add", "op": "AddV2", "input": ["StatefulPartitionedCall/StatefulPartitionedCall/predict/MobilenetV3/expanded_conv_8/expand/BatchNorm/FusedBatchNormV3", "StatefulPartitionedCall/StatefulPartitionedCall/predict/MobilenetV3/expanded_conv_8/expand/hard_swish/add/y"], "attr": {"T": {"type": "DT_FLOAT"}}}, {"name": "StatefulPartitionedCall/StatefulPartitionedCall/predict/MobilenetV3/expanded_conv_8/expand/hard_swish/Relu6", "op": "Relu6", "input": ["StatefulPartitionedCall/StatefulPartitionedCall/predict/MobilenetV3/expanded_conv_8/expand/hard_swish/add"], "attr": {"T": {"type": "DT_FLOAT"}}}, {"name": "StatefulPartitionedCall/StatefulPartitionedCall/predict/MobilenetV3/expanded_conv_8/expand/hard_swish/mul_1", "op": "Mul", "input": ["StatefulPartitionedCall/StatefulPartitionedCall/predict/MobilenetV3/expanded_conv_8/expand/hard_swish/mul", "StatefulPartitionedCall/StatefulPartitionedCall/predict/MobilenetV3/expanded_conv_8/expand/hard_swish/Relu6"], "attr": {"T": {"type": "DT_FLOAT"}, "_grappler_ArithmeticOptimizer_MinimizeBroadcasts": {"b": true}}}, {"name": "StatefulPartitionedCall/StatefulPartitionedCall/predict/MobilenetV3/expanded_conv_8/depthwise/depthwise", "op": "FusedDepthwiseConv2dNative", "input": ["StatefulPartitionedCall/StatefulPartitionedCall/predict/MobilenetV3/expanded_conv_8/expand/hard_swish/mul_1", "StatefulPartitionedCall/StatefulPartitionedCall/predict/MobilenetV3/expanded_conv_8/depthwise/depthwise_weights", "StatefulPartitionedCall/StatefulPartitionedCall/predict/MobilenetV3/expanded_conv_8/depthwise/depthwise_bn_offset"], "attr": {"data_format": {"s": "TkhXQw=="}, "strides": {"list": {"i": ["1", "1", "1", "1"]}}, "T": {"type": "DT_FLOAT"}, "explicit_paddings": {"list": {}}, "fused_ops": {"list": {"s": ["Qmlhc0FkZA=="]}}, "num_args": {"i": "1"}, "dilations": {"list": {"i": ["1", "1", "1", "1"]}}, "padding": {"s": "U0FNRQ=="}}}, {"name": "StatefulPartitionedCall/StatefulPartitionedCall/predict/MobilenetV3/expanded_conv_8/depthwise/hard_swish/mul", "op": "Mul", "input": ["StatefulPartitionedCall/StatefulPartitionedCall/predict/MobilenetV3/expanded_conv_8/depthwise/hard_swish/mul_1/y", "StatefulPartitionedCall/StatefulPartitionedCall/predict/MobilenetV3/expanded_conv_8/depthwise/depthwise"], "attr": {"_grappler_ArithmeticOptimizer_MinimizeBroadcasts": {"b": true}, "T": {"type": "DT_FLOAT"}}}, {"name": "StatefulPartitionedCall/StatefulPartitionedCall/predict/MobilenetV3/expanded_conv_8/depthwise/hard_swish/add", "op": "AddV2", "input": ["StatefulPartitionedCall/StatefulPartitionedCall/predict/MobilenetV3/expanded_conv_8/depthwise/depthwise", "StatefulPartitionedCall/StatefulPartitionedCall/predict/MobilenetV3/expanded_conv_8/depthwise/hard_swish/add/y"], "attr": {"T": {"type": "DT_FLOAT"}}}, {"name": "StatefulPartitionedCall/StatefulPartitionedCall/predict/MobilenetV3/expanded_conv_8/depthwise/hard_swish/Relu6", "op": "Relu6", "input": ["StatefulPartitionedCall/StatefulPartitionedCall/predict/MobilenetV3/expanded_conv_8/depthwise/hard_swish/add"], "attr": {"T": {"type": "DT_FLOAT"}}}, {"name": "StatefulPartitionedCall/StatefulPartitionedCall/predict/MobilenetV3/expanded_conv_8/depthwise/hard_swish/mul_1", "op": "Mul", "input": ["StatefulPartitionedCall/StatefulPartitionedCall/predict/MobilenetV3/expanded_conv_8/depthwise/hard_swish/mul", "StatefulPartitionedCall/StatefulPartitionedCall/predict/MobilenetV3/expanded_conv_8/depthwise/hard_swish/Relu6"], "attr": {"T": {"type": "DT_FLOAT"}, "_grappler_ArithmeticOptimizer_MinimizeBroadcasts": {"b": true}}}, {"name": "StatefulPartitionedCall/StatefulPartitionedCall/predict/MobilenetV3/expanded_conv_8/project/BatchNorm/FusedBatchNormV3", "op": "_FusedConv2D", "input": ["StatefulPartitionedCall/StatefulPartitionedCall/predict/MobilenetV3/expanded_conv_8/depthwise/hard_swish/mul_1", "StatefulPartitionedCall/StatefulPartitionedCall/predict/MobilenetV3/expanded_conv_8/project/Conv2D_weights", "StatefulPartitionedCall/StatefulPartitionedCall/predict/MobilenetV3/expanded_conv_8/project/Conv2D_bn_offset"], "device": "/device:CPU:0", "attr": {"data_format": {"s": "TkhXQw=="}, "explicit_paddings": {"list": {}}, "padding": {"s": "U0FNRQ=="}, "num_args": {"i": "1"}, "T": {"type": "DT_FLOAT"}, "fused_ops": {"list": {"s": ["Qmlhc0FkZA=="]}}, "use_cudnn_on_gpu": {"b": true}, "strides": {"list": {"i": ["1", "1", "1", "1"]}}, "epsilon": {"f": 0.0}, "dilations": {"list": {"i": ["1", "1", "1", "1"]}}}}, {"name": "StatefulPartitionedCall/StatefulPartitionedCall/predict/MobilenetV3/expanded_conv_8/add", "op": "AddV2", "input": ["StatefulPartitionedCall/StatefulPartitionedCall/predict/MobilenetV3/expanded_conv_8/project/BatchNorm/FusedBatchNormV3", "StatefulPartitionedCall/StatefulPartitionedCall/predict/MobilenetV3/expanded_conv_7/add"], "attr": {"T": {"type": "DT_FLOAT"}}}, {"name": "StatefulPartitionedCall/StatefulPartitionedCall/predict/MobilenetV3/expanded_conv_9/expand/BatchNorm/FusedBatchNormV3", "op": "_FusedConv2D", "input": ["StatefulPartitionedCall/StatefulPartitionedCall/predict/MobilenetV3/expanded_conv_8/add", "StatefulPartitionedCall/StatefulPartitionedCall/predict/MobilenetV3/expanded_conv_9/expand/Conv2D_weights", "StatefulPartitionedCall/StatefulPartitionedCall/predict/MobilenetV3/expanded_conv_9/expand/Conv2D_bn_offset"], "device": "/device:CPU:0", "attr": {"num_args": {"i": "1"}, "T": {"type": "DT_FLOAT"}, "epsilon": {"f": 0.0}, "fused_ops": {"list": {"s": ["Qmlhc0FkZA=="]}}, "strides": {"list": {"i": ["1", "1", "1", "1"]}}, "dilations": {"list": {"i": ["1", "1", "1", "1"]}}, "use_cudnn_on_gpu": {"b": true}, "data_format": {"s": "TkhXQw=="}, "explicit_paddings": {"list": {}}, "padding": {"s": "U0FNRQ=="}}}, {"name": "StatefulPartitionedCall/StatefulPartitionedCall/predict/MobilenetV3/expanded_conv_9/expand/hard_swish/mul", "op": "Mul", "input": ["StatefulPartitionedCall/StatefulPartitionedCall/predict/MobilenetV3/expanded_conv_9/expand/hard_swish/mul_1/y", "StatefulPartitionedCall/StatefulPartitionedCall/predict/MobilenetV3/expanded_conv_9/expand/BatchNorm/FusedBatchNormV3"], "attr": {"_grappler_ArithmeticOptimizer_MinimizeBroadcasts": {"b": true}, "T": {"type": "DT_FLOAT"}}}, {"name": "StatefulPartitionedCall/StatefulPartitionedCall/predict/MobilenetV3/expanded_conv_9/expand/hard_swish/add", "op": "AddV2", "input": ["StatefulPartitionedCall/StatefulPartitionedCall/predict/MobilenetV3/expanded_conv_9/expand/BatchNorm/FusedBatchNormV3", "StatefulPartitionedCall/StatefulPartitionedCall/predict/MobilenetV3/expanded_conv_9/expand/hard_swish/add/y"], "attr": {"T": {"type": "DT_FLOAT"}}}, {"name": "StatefulPartitionedCall/StatefulPartitionedCall/predict/MobilenetV3/expanded_conv_9/expand/hard_swish/Relu6", "op": "Relu6", "input": ["StatefulPartitionedCall/StatefulPartitionedCall/predict/MobilenetV3/expanded_conv_9/expand/hard_swish/add"], "attr": {"T": {"type": "DT_FLOAT"}}}, {"name": "StatefulPartitionedCall/StatefulPartitionedCall/predict/MobilenetV3/expanded_conv_9/expand/hard_swish/mul_1", "op": "Mul", "input": ["StatefulPartitionedCall/StatefulPartitionedCall/predict/MobilenetV3/expanded_conv_9/expand/hard_swish/mul", "StatefulPartitionedCall/StatefulPartitionedCall/predict/MobilenetV3/expanded_conv_9/expand/hard_swish/Relu6"], "attr": {"T": {"type": "DT_FLOAT"}, "_grappler_ArithmeticOptimizer_MinimizeBroadcasts": {"b": true}}}, {"name": "StatefulPartitionedCall/StatefulPartitionedCall/predict/MobilenetV3/expanded_conv_9/depthwise/depthwise", "op": "FusedDepthwiseConv2dNative", "input": ["StatefulPartitionedCall/StatefulPartitionedCall/predict/MobilenetV3/expanded_conv_9/expand/hard_swish/mul_1", "StatefulPartitionedCall/StatefulPartitionedCall/predict/MobilenetV3/expanded_conv_9/depthwise/depthwise_weights", "StatefulPartitionedCall/StatefulPartitionedCall/predict/MobilenetV3/expanded_conv_9/depthwise/depthwise_bn_offset"], "attr": {"padding": {"s": "U0FNRQ=="}, "dilations": {"list": {"i": ["1", "1", "1", "1"]}}, "num_args": {"i": "1"}, "fused_ops": {"list": {"s": ["Qmlhc0FkZA=="]}}, "T": {"type": "DT_FLOAT"}, "data_format": {"s": "TkhXQw=="}, "explicit_paddings": {"list": {}}, "strides": {"list": {"i": ["1", "1", "1", "1"]}}}}, {"name": "StatefulPartitionedCall/StatefulPartitionedCall/predict/MobilenetV3/expanded_conv_9/depthwise/hard_swish/mul", "op": "Mul", "input": ["StatefulPartitionedCall/StatefulPartitionedCall/predict/MobilenetV3/expanded_conv_9/depthwise/hard_swish/mul_1/y", "StatefulPartitionedCall/StatefulPartitionedCall/predict/MobilenetV3/expanded_conv_9/depthwise/depthwise"], "attr": {"T": {"type": "DT_FLOAT"}, "_grappler_ArithmeticOptimizer_MinimizeBroadcasts": {"b": true}}}, {"name": "StatefulPartitionedCall/StatefulPartitionedCall/predict/MobilenetV3/expanded_conv_9/depthwise/hard_swish/add", "op": "AddV2", "input": ["StatefulPartitionedCall/StatefulPartitionedCall/predict/MobilenetV3/expanded_conv_9/depthwise/depthwise", "StatefulPartitionedCall/StatefulPartitionedCall/predict/MobilenetV3/expanded_conv_9/depthwise/hard_swish/add/y"], "attr": {"T": {"type": "DT_FLOAT"}}}, {"name": "StatefulPartitionedCall/StatefulPartitionedCall/predict/MobilenetV3/expanded_conv_9/depthwise/hard_swish/Relu6", "op": "Relu6", "input": ["StatefulPartitionedCall/StatefulPartitionedCall/predict/MobilenetV3/expanded_conv_9/depthwise/hard_swish/add"], "attr": {"T": {"type": "DT_FLOAT"}}}, {"name": "StatefulPartitionedCall/StatefulPartitionedCall/predict/MobilenetV3/expanded_conv_9/depthwise/hard_swish/mul_1", "op": "Mul", "input": ["StatefulPartitionedCall/StatefulPartitionedCall/predict/MobilenetV3/expanded_conv_9/depthwise/hard_swish/mul", "StatefulPartitionedCall/StatefulPartitionedCall/predict/MobilenetV3/expanded_conv_9/depthwise/hard_swish/Relu6"], "attr": {"_grappler_ArithmeticOptimizer_MinimizeBroadcasts": {"b": true}, "T": {"type": "DT_FLOAT"}}}, {"name": "StatefulPartitionedCall/StatefulPartitionedCall/predict/MobilenetV3/expanded_conv_9/project/BatchNorm/FusedBatchNormV3", "op": "_FusedConv2D", "input": ["StatefulPartitionedCall/StatefulPartitionedCall/predict/MobilenetV3/expanded_conv_9/depthwise/hard_swish/mul_1", "StatefulPartitionedCall/StatefulPartitionedCall/predict/MobilenetV3/expanded_conv_9/project/Conv2D_weights", "StatefulPartitionedCall/StatefulPartitionedCall/predict/MobilenetV3/expanded_conv_9/project/Conv2D_bn_offset"], "device": "/device:CPU:0", "attr": {"num_args": {"i": "1"}, "data_format": {"s": "TkhXQw=="}, "use_cudnn_on_gpu": {"b": true}, "padding": {"s": "U0FNRQ=="}, "epsilon": {"f": 0.0}, "explicit_paddings": {"list": {}}, "T": {"type": "DT_FLOAT"}, "fused_ops": {"list": {"s": ["Qmlhc0FkZA=="]}}, "dilations": {"list": {"i": ["1", "1", "1", "1"]}}, "strides": {"list": {"i": ["1", "1", "1", "1"]}}}}, {"name": "StatefulPartitionedCall/StatefulPartitionedCall/predict/MobilenetV3/expanded_conv_9/add", "op": "AddV2", "input": ["StatefulPartitionedCall/StatefulPartitionedCall/predict/MobilenetV3/expanded_conv_9/project/BatchNorm/FusedBatchNormV3", "StatefulPartitionedCall/StatefulPartitionedCall/predict/MobilenetV3/expanded_conv_8/add"], "attr": {"T": {"type": "DT_FLOAT"}}}, {"name": "StatefulPartitionedCall/StatefulPartitionedCall/predict/MobilenetV3/expanded_conv_10/expand/BatchNorm/FusedBatchNormV3", "op": "_FusedConv2D", "input": ["StatefulPartitionedCall/StatefulPartitionedCall/predict/MobilenetV3/expanded_conv_9/add", "StatefulPartitionedCall/StatefulPartitionedCall/predict/MobilenetV3/expanded_conv_10/expand/Conv2D_weights", "StatefulPartitionedCall/StatefulPartitionedCall/predict/MobilenetV3/expanded_conv_10/expand/Conv2D_bn_offset"], "device": "/device:CPU:0", "attr": {"padding": {"s": "U0FNRQ=="}, "explicit_paddings": {"list": {}}, "fused_ops": {"list": {"s": ["Qmlhc0FkZA=="]}}, "T": {"type": "DT_FLOAT"}, "epsilon": {"f": 0.0}, "data_format": {"s": "TkhXQw=="}, "use_cudnn_on_gpu": {"b": true}, "strides": {"list": {"i": ["1", "1", "1", "1"]}}, "dilations": {"list": {"i": ["1", "1", "1", "1"]}}, "num_args": {"i": "1"}}}, {"name": "StatefulPartitionedCall/StatefulPartitionedCall/predict/MobilenetV3/expanded_conv_10/expand/hard_swish/mul", "op": "Mul", "input": ["StatefulPartitionedCall/StatefulPartitionedCall/predict/MobilenetV3/expanded_conv_10/expand/hard_swish/mul_1/y", "StatefulPartitionedCall/StatefulPartitionedCall/predict/MobilenetV3/expanded_conv_10/expand/BatchNorm/FusedBatchNormV3"], "attr": {"T": {"type": "DT_FLOAT"}, "_grappler_ArithmeticOptimizer_MinimizeBroadcasts": {"b": true}}}, {"name": "StatefulPartitionedCall/StatefulPartitionedCall/predict/MobilenetV3/expanded_conv_10/expand/hard_swish/add", "op": "AddV2", "input": ["StatefulPartitionedCall/StatefulPartitionedCall/predict/MobilenetV3/expanded_conv_10/expand/BatchNorm/FusedBatchNormV3", "StatefulPartitionedCall/StatefulPartitionedCall/predict/MobilenetV3/expanded_conv_10/expand/hard_swish/add/y"], "attr": {"T": {"type": "DT_FLOAT"}}}, {"name": "StatefulPartitionedCall/StatefulPartitionedCall/predict/MobilenetV3/expanded_conv_10/expand/hard_swish/Relu6", "op": "Relu6", "input": ["StatefulPartitionedCall/StatefulPartitionedCall/predict/MobilenetV3/expanded_conv_10/expand/hard_swish/add"], "attr": {"T": {"type": "DT_FLOAT"}}}, {"name": "StatefulPartitionedCall/StatefulPartitionedCall/predict/MobilenetV3/expanded_conv_10/expand/hard_swish/mul_1", "op": "Mul", "input": ["StatefulPartitionedCall/StatefulPartitionedCall/predict/MobilenetV3/expanded_conv_10/expand/hard_swish/mul", "StatefulPartitionedCall/StatefulPartitionedCall/predict/MobilenetV3/expanded_conv_10/expand/hard_swish/Relu6"], "attr": {"_grappler_ArithmeticOptimizer_MinimizeBroadcasts": {"b": true}, "T": {"type": "DT_FLOAT"}}}, {"name": "StatefulPartitionedCall/StatefulPartitionedCall/predict/MobilenetV3/expanded_conv_10/depthwise/depthwise", "op": "FusedDepthwiseConv2dNative", "input": ["StatefulPartitionedCall/StatefulPartitionedCall/predict/MobilenetV3/expanded_conv_10/expand/hard_swish/mul_1", "StatefulPartitionedCall/StatefulPartitionedCall/predict/MobilenetV3/expanded_conv_10/depthwise/depthwise_weights", "StatefulPartitionedCall/StatefulPartitionedCall/predict/MobilenetV3/expanded_conv_10/depthwise/depthwise_bn_offset"], "attr": {"padding": {"s": "U0FNRQ=="}, "dilations": {"list": {"i": ["1", "1", "1", "1"]}}, "T": {"type": "DT_FLOAT"}, "explicit_paddings": {"list": {}}, "fused_ops": {"list": {"s": ["Qmlhc0FkZA=="]}}, "strides": {"list": {"i": ["1", "1", "1", "1"]}}, "num_args": {"i": "1"}, "data_format": {"s": "TkhXQw=="}}}, {"name": "StatefulPartitionedCall/StatefulPartitionedCall/predict/MobilenetV3/expanded_conv_10/depthwise/hard_swish/mul", "op": "Mul", "input": ["StatefulPartitionedCall/StatefulPartitionedCall/predict/MobilenetV3/expanded_conv_10/depthwise/hard_swish/mul_1/y", "StatefulPartitionedCall/StatefulPartitionedCall/predict/MobilenetV3/expanded_conv_10/depthwise/depthwise"], "attr": {"T": {"type": "DT_FLOAT"}, "_grappler_ArithmeticOptimizer_MinimizeBroadcasts": {"b": true}}}, {"name": "StatefulPartitionedCall/StatefulPartitionedCall/predict/MobilenetV3/expanded_conv_10/depthwise/hard_swish/add", "op": "AddV2", "input": ["StatefulPartitionedCall/StatefulPartitionedCall/predict/MobilenetV3/expanded_conv_10/depthwise/depthwise", "StatefulPartitionedCall/StatefulPartitionedCall/predict/MobilenetV3/expanded_conv_10/depthwise/hard_swish/add/y"], "attr": {"T": {"type": "DT_FLOAT"}}}, {"name": "StatefulPartitionedCall/StatefulPartitionedCall/predict/MobilenetV3/expanded_conv_10/depthwise/hard_swish/Relu6", "op": "Relu6", "input": ["StatefulPartitionedCall/StatefulPartitionedCall/predict/MobilenetV3/expanded_conv_10/depthwise/hard_swish/add"], "attr": {"T": {"type": "DT_FLOAT"}}}, {"name": "StatefulPartitionedCall/StatefulPartitionedCall/predict/MobilenetV3/expanded_conv_10/depthwise/hard_swish/mul_1", "op": "Mul", "input": ["StatefulPartitionedCall/StatefulPartitionedCall/predict/MobilenetV3/expanded_conv_10/depthwise/hard_swish/mul", "StatefulPartitionedCall/StatefulPartitionedCall/predict/MobilenetV3/expanded_conv_10/depthwise/hard_swish/Relu6"], "attr": {"_grappler_ArithmeticOptimizer_MinimizeBroadcasts": {"b": true}, "T": {"type": "DT_FLOAT"}}}, {"name": "StatefulPartitionedCall/StatefulPartitionedCall/predict/MobilenetV3/expanded_conv_10/squeeze_excite/Mean", "op": "Mean", "input": ["StatefulPartitionedCall/StatefulPartitionedCall/predict/MobilenetV3/expanded_conv_10/depthwise/hard_swish/mul_1", "StatefulPartitionedCall/StatefulPartitionedCall/predict/MobilenetV3/expanded_conv_10/squeeze_excite/Mean/reduction_indices"], "attr": {"Tidx": {"type": "DT_INT32"}, "T": {"type": "DT_FLOAT"}, "keep_dims": {"b": true}}}, {"name": "StatefulPartitionedCall/StatefulPartitionedCall/predict/MobilenetV3/expanded_conv_10/squeeze_excite/Conv/Relu", "op": "_FusedConv2D", "input": ["StatefulPartitionedCall/StatefulPartitionedCall/predict/MobilenetV3/expanded_conv_10/squeeze_excite/Mean", "Func/StatefulPartitionedCall/StatefulPartitionedCall/input/_444", "Func/StatefulPartitionedCall/StatefulPartitionedCall/input/_445"], "device": "/device:CPU:0", "attr": {"use_cudnn_on_gpu": {"b": true}, "dilations": {"list": {"i": ["1", "1", "1", "1"]}}, "explicit_paddings": {"list": {}}, "fused_ops": {"list": {"s": ["Qmlhc0FkZA==", "UmVsdQ=="]}}, "num_args": {"i": "1"}, "strides": {"list": {"i": ["1", "1", "1", "1"]}}, "T": {"type": "DT_FLOAT"}, "padding": {"s": "U0FNRQ=="}, "data_format": {"s": "TkhXQw=="}, "epsilon": {"f": 0.0}}}, {"name": "StatefulPartitionedCall/StatefulPartitionedCall/predict/MobilenetV3/expanded_conv_10/squeeze_excite/Conv_1/BiasAdd", "op": "_FusedConv2D", "input": ["StatefulPartitionedCall/StatefulPartitionedCall/predict/MobilenetV3/expanded_conv_10/squeeze_excite/Conv/Relu", "Func/StatefulPartitionedCall/StatefulPartitionedCall/input/_446", "Func/StatefulPartitionedCall/StatefulPartitionedCall/input/_447"], "device": "/device:CPU:0", "attr": {"dilations": {"list": {"i": ["1", "1", "1", "1"]}}, "T": {"type": "DT_FLOAT"}, "epsilon": {"f": 0.0}, "use_cudnn_on_gpu": {"b": true}, "data_format": {"s": "TkhXQw=="}, "padding": {"s": "U0FNRQ=="}, "fused_ops": {"list": {"s": ["Qmlhc0FkZA=="]}}, "strides": {"list": {"i": ["1", "1", "1", "1"]}}, "explicit_paddings": {"list": {}}, "num_args": {"i": "1"}}}, {"name": "StatefulPartitionedCall/StatefulPartitionedCall/predict/MobilenetV3/expanded_conv_10/squeeze_excite/Conv_1/add", "op": "AddV2", "input": ["StatefulPartitionedCall/StatefulPartitionedCall/predict/MobilenetV3/expanded_conv_10/squeeze_excite/Conv_1/BiasAdd", "StatefulPartitionedCall/StatefulPartitionedCall/predict/MobilenetV3/expanded_conv_10/squeeze_excite/Conv_1/add/y"], "attr": {"T": {"type": "DT_FLOAT"}}}, {"name": "StatefulPartitionedCall/StatefulPartitionedCall/predict/MobilenetV3/expanded_conv_10/squeeze_excite/Conv_1/Relu6", "op": "Relu6", "input": ["StatefulPartitionedCall/StatefulPartitionedCall/predict/MobilenetV3/expanded_conv_10/squeeze_excite/Conv_1/add"], "attr": {"T": {"type": "DT_FLOAT"}}}, {"name": "StatefulPartitionedCall/StatefulPartitionedCall/predict/MobilenetV3/expanded_conv_10/squeeze_excite/Conv_1/mul", "op": "Mul", "input": ["StatefulPartitionedCall/StatefulPartitionedCall/predict/MobilenetV3/expanded_conv_10/squeeze_excite/Conv_1/mul/y", "StatefulPartitionedCall/StatefulPartitionedCall/predict/MobilenetV3/expanded_conv_10/squeeze_excite/Conv_1/Relu6"], "attr": {"T": {"type": "DT_FLOAT"}, "_grappler_ArithmeticOptimizer_MinimizeBroadcasts": {"b": true}}}, {"name": "StatefulPartitionedCall/StatefulPartitionedCall/predict/MobilenetV3/expanded_conv_10/squeeze_excite/mul", "op": "Mul", "input": ["StatefulPartitionedCall/StatefulPartitionedCall/predict/MobilenetV3/expanded_conv_10/squeeze_excite/Conv_1/mul", "StatefulPartitionedCall/StatefulPartitionedCall/predict/MobilenetV3/expanded_conv_10/depthwise/hard_swish/mul_1"], "attr": {"T": {"type": "DT_FLOAT"}, "_grappler_ArithmeticOptimizer_MinimizeBroadcasts": {"b": true}}}, {"name": "StatefulPartitionedCall/StatefulPartitionedCall/predict/MobilenetV3/expanded_conv_10/project/BatchNorm/FusedBatchNormV3", "op": "_FusedConv2D", "input": ["StatefulPartitionedCall/StatefulPartitionedCall/predict/MobilenetV3/expanded_conv_10/squeeze_excite/mul", "StatefulPartitionedCall/StatefulPartitionedCall/predict/MobilenetV3/expanded_conv_10/project/Conv2D_weights", "StatefulPartitionedCall/StatefulPartitionedCall/predict/MobilenetV3/expanded_conv_10/project/Conv2D_bn_offset"], "device": "/device:CPU:0", "attr": {"T": {"type": "DT_FLOAT"}, "explicit_paddings": {"list": {}}, "data_format": {"s": "TkhXQw=="}, "epsilon": {"f": 0.0}, "num_args": {"i": "1"}, "fused_ops": {"list": {"s": ["Qmlhc0FkZA=="]}}, "dilations": {"list": {"i": ["1", "1", "1", "1"]}}, "padding": {"s": "U0FNRQ=="}, "strides": {"list": {"i": ["1", "1", "1", "1"]}}, "use_cudnn_on_gpu": {"b": true}}}, {"name": "StatefulPartitionedCall/StatefulPartitionedCall/predict/MobilenetV3/expanded_conv_11/expand/BatchNorm/FusedBatchNormV3", "op": "_FusedConv2D", "input": ["StatefulPartitionedCall/StatefulPartitionedCall/predict/MobilenetV3/expanded_conv_10/project/BatchNorm/FusedBatchNormV3", "StatefulPartitionedCall/StatefulPartitionedCall/predict/MobilenetV3/expanded_conv_11/expand/Conv2D_weights", "StatefulPartitionedCall/StatefulPartitionedCall/predict/MobilenetV3/expanded_conv_11/expand/Conv2D_bn_offset"], "device": "/device:CPU:0", "attr": {"dilations": {"list": {"i": ["1", "1", "1", "1"]}}, "strides": {"list": {"i": ["1", "1", "1", "1"]}}, "epsilon": {"f": 0.0}, "use_cudnn_on_gpu": {"b": true}, "data_format": {"s": "TkhXQw=="}, "T": {"type": "DT_FLOAT"}, "explicit_paddings": {"list": {}}, "padding": {"s": "U0FNRQ=="}, "fused_ops": {"list": {"s": ["Qmlhc0FkZA=="]}}, "num_args": {"i": "1"}}}, {"name": "StatefulPartitionedCall/StatefulPartitionedCall/predict/MobilenetV3/expanded_conv_11/expand/hard_swish/mul", "op": "Mul", "input": ["StatefulPartitionedCall/StatefulPartitionedCall/predict/MobilenetV3/expanded_conv_11/expand/hard_swish/mul_1/y", "StatefulPartitionedCall/StatefulPartitionedCall/predict/MobilenetV3/expanded_conv_11/expand/BatchNorm/FusedBatchNormV3"], "attr": {"_grappler_ArithmeticOptimizer_MinimizeBroadcasts": {"b": true}, "T": {"type": "DT_FLOAT"}}}, {"name": "StatefulPartitionedCall/StatefulPartitionedCall/predict/MobilenetV3/expanded_conv_11/expand/hard_swish/add", "op": "AddV2", "input": ["StatefulPartitionedCall/StatefulPartitionedCall/predict/MobilenetV3/expanded_conv_11/expand/BatchNorm/FusedBatchNormV3", "StatefulPartitionedCall/StatefulPartitionedCall/predict/MobilenetV3/expanded_conv_11/expand/hard_swish/add/y"], "attr": {"T": {"type": "DT_FLOAT"}}}, {"name": "StatefulPartitionedCall/StatefulPartitionedCall/predict/MobilenetV3/expanded_conv_11/expand/hard_swish/Relu6", "op": "Relu6", "input": ["StatefulPartitionedCall/StatefulPartitionedCall/predict/MobilenetV3/expanded_conv_11/expand/hard_swish/add"], "attr": {"T": {"type": "DT_FLOAT"}}}, {"name": "StatefulPartitionedCall/StatefulPartitionedCall/predict/MobilenetV3/expanded_conv_11/expand/hard_swish/mul_1", "op": "Mul", "input": ["StatefulPartitionedCall/StatefulPartitionedCall/predict/MobilenetV3/expanded_conv_11/expand/hard_swish/mul", "StatefulPartitionedCall/StatefulPartitionedCall/predict/MobilenetV3/expanded_conv_11/expand/hard_swish/Relu6"], "attr": {"_grappler_ArithmeticOptimizer_MinimizeBroadcasts": {"b": true}, "T": {"type": "DT_FLOAT"}}}, {"name": "StatefulPartitionedCall/StatefulPartitionedCall/predict/MobilenetV3/expanded_conv_11/depthwise/depthwise", "op": "FusedDepthwiseConv2dNative", "input": ["StatefulPartitionedCall/StatefulPartitionedCall/predict/MobilenetV3/expanded_conv_11/expand/hard_swish/mul_1", "StatefulPartitionedCall/StatefulPartitionedCall/predict/MobilenetV3/expanded_conv_11/depthwise/depthwise_weights", "StatefulPartitionedCall/StatefulPartitionedCall/predict/MobilenetV3/expanded_conv_11/depthwise/depthwise_bn_offset"], "attr": {"strides": {"list": {"i": ["1", "1", "1", "1"]}}, "padding": {"s": "U0FNRQ=="}, "fused_ops": {"list": {"s": ["Qmlhc0FkZA=="]}}, "T": {"type": "DT_FLOAT"}, "num_args": {"i": "1"}, "data_format": {"s": "TkhXQw=="}, "explicit_paddings": {"list": {}}, "dilations": {"list": {"i": ["1", "1", "1", "1"]}}}}, {"name": "StatefulPartitionedCall/StatefulPartitionedCall/predict/MobilenetV3/expanded_conv_11/depthwise/hard_swish/mul", "op": "Mul", "input": ["StatefulPartitionedCall/StatefulPartitionedCall/predict/MobilenetV3/expanded_conv_11/depthwise/hard_swish/mul_1/y", "StatefulPartitionedCall/StatefulPartitionedCall/predict/MobilenetV3/expanded_conv_11/depthwise/depthwise"], "attr": {"_grappler_ArithmeticOptimizer_MinimizeBroadcasts": {"b": true}, "T": {"type": "DT_FLOAT"}}}, {"name": "StatefulPartitionedCall/StatefulPartitionedCall/predict/MobilenetV3/expanded_conv_11/depthwise/hard_swish/add", "op": "AddV2", "input": ["StatefulPartitionedCall/StatefulPartitionedCall/predict/MobilenetV3/expanded_conv_11/depthwise/depthwise", "StatefulPartitionedCall/StatefulPartitionedCall/predict/MobilenetV3/expanded_conv_11/depthwise/hard_swish/add/y"], "attr": {"T": {"type": "DT_FLOAT"}}}, {"name": "StatefulPartitionedCall/StatefulPartitionedCall/predict/MobilenetV3/expanded_conv_11/depthwise/hard_swish/Relu6", "op": "Relu6", "input": ["StatefulPartitionedCall/StatefulPartitionedCall/predict/MobilenetV3/expanded_conv_11/depthwise/hard_swish/add"], "attr": {"T": {"type": "DT_FLOAT"}}}, {"name": "StatefulPartitionedCall/StatefulPartitionedCall/predict/MobilenetV3/expanded_conv_11/depthwise/hard_swish/mul_1", "op": "Mul", "input": ["StatefulPartitionedCall/StatefulPartitionedCall/predict/MobilenetV3/expanded_conv_11/depthwise/hard_swish/mul", "StatefulPartitionedCall/StatefulPartitionedCall/predict/MobilenetV3/expanded_conv_11/depthwise/hard_swish/Relu6"], "attr": {"_grappler_ArithmeticOptimizer_MinimizeBroadcasts": {"b": true}, "T": {"type": "DT_FLOAT"}}}, {"name": "StatefulPartitionedCall/StatefulPartitionedCall/predict/MobilenetV3/expanded_conv_11/squeeze_excite/Mean", "op": "Mean", "input": ["StatefulPartitionedCall/StatefulPartitionedCall/predict/MobilenetV3/expanded_conv_11/depthwise/hard_swish/mul_1", "StatefulPartitionedCall/StatefulPartitionedCall/predict/MobilenetV3/expanded_conv_11/squeeze_excite/Mean/reduction_indices"], "attr": {"Tidx": {"type": "DT_INT32"}, "T": {"type": "DT_FLOAT"}, "keep_dims": {"b": true}}}, {"name": "StatefulPartitionedCall/StatefulPartitionedCall/predict/MobilenetV3/expanded_conv_11/squeeze_excite/Conv/Relu", "op": "_FusedConv2D", "input": ["StatefulPartitionedCall/StatefulPartitionedCall/predict/MobilenetV3/expanded_conv_11/squeeze_excite/Mean", "Func/StatefulPartitionedCall/StatefulPartitionedCall/input/_463", "Func/StatefulPartitionedCall/StatefulPartitionedCall/input/_464"], "device": "/device:CPU:0", "attr": {"num_args": {"i": "1"}, "data_format": {"s": "TkhXQw=="}, "dilations": {"list": {"i": ["1", "1", "1", "1"]}}, "explicit_paddings": {"list": {}}, "strides": {"list": {"i": ["1", "1", "1", "1"]}}, "padding": {"s": "U0FNRQ=="}, "epsilon": {"f": 0.0}, "fused_ops": {"list": {"s": ["Qmlhc0FkZA==", "UmVsdQ=="]}}, "T": {"type": "DT_FLOAT"}, "use_cudnn_on_gpu": {"b": true}}}, {"name": "StatefulPartitionedCall/StatefulPartitionedCall/predict/MobilenetV3/expanded_conv_11/squeeze_excite/Conv_1/BiasAdd", "op": "_FusedConv2D", "input": ["StatefulPartitionedCall/StatefulPartitionedCall/predict/MobilenetV3/expanded_conv_11/squeeze_excite/Conv/Relu", "Func/StatefulPartitionedCall/StatefulPartitionedCall/input/_465", "Func/StatefulPartitionedCall/StatefulPartitionedCall/input/_466"], "device": "/device:CPU:0", "attr": {"explicit_paddings": {"list": {}}, "use_cudnn_on_gpu": {"b": true}, "epsilon": {"f": 0.0}, "data_format": {"s": "TkhXQw=="}, "strides": {"list": {"i": ["1", "1", "1", "1"]}}, "dilations": {"list": {"i": ["1", "1", "1", "1"]}}, "fused_ops": {"list": {"s": ["Qmlhc0FkZA=="]}}, "T": {"type": "DT_FLOAT"}, "padding": {"s": "U0FNRQ=="}, "num_args": {"i": "1"}}}, {"name": "StatefulPartitionedCall/StatefulPartitionedCall/predict/MobilenetV3/expanded_conv_11/squeeze_excite/Conv_1/add", "op": "AddV2", "input": ["StatefulPartitionedCall/StatefulPartitionedCall/predict/MobilenetV3/expanded_conv_11/squeeze_excite/Conv_1/BiasAdd", "StatefulPartitionedCall/StatefulPartitionedCall/predict/MobilenetV3/expanded_conv_11/squeeze_excite/Conv_1/add/y"], "attr": {"T": {"type": "DT_FLOAT"}}}, {"name": "StatefulPartitionedCall/StatefulPartitionedCall/predict/MobilenetV3/expanded_conv_11/squeeze_excite/Conv_1/Relu6", "op": "Relu6", "input": ["StatefulPartitionedCall/StatefulPartitionedCall/predict/MobilenetV3/expanded_conv_11/squeeze_excite/Conv_1/add"], "attr": {"T": {"type": "DT_FLOAT"}}}, {"name": "StatefulPartitionedCall/StatefulPartitionedCall/predict/MobilenetV3/expanded_conv_11/squeeze_excite/Conv_1/mul", "op": "Mul", "input": ["StatefulPartitionedCall/StatefulPartitionedCall/predict/MobilenetV3/expanded_conv_11/squeeze_excite/Conv_1/mul/y", "StatefulPartitionedCall/StatefulPartitionedCall/predict/MobilenetV3/expanded_conv_11/squeeze_excite/Conv_1/Relu6"], "attr": {"T": {"type": "DT_FLOAT"}, "_grappler_ArithmeticOptimizer_MinimizeBroadcasts": {"b": true}}}, {"name": "StatefulPartitionedCall/StatefulPartitionedCall/predict/MobilenetV3/expanded_conv_11/squeeze_excite/mul", "op": "Mul", "input": ["StatefulPartitionedCall/StatefulPartitionedCall/predict/MobilenetV3/expanded_conv_11/squeeze_excite/Conv_1/mul", "StatefulPartitionedCall/StatefulPartitionedCall/predict/MobilenetV3/expanded_conv_11/depthwise/hard_swish/mul_1"], "attr": {"_grappler_ArithmeticOptimizer_MinimizeBroadcasts": {"b": true}, "T": {"type": "DT_FLOAT"}}}, {"name": "StatefulPartitionedCall/StatefulPartitionedCall/predict/MobilenetV3/expanded_conv_11/project/BatchNorm/FusedBatchNormV3", "op": "_FusedConv2D", "input": ["StatefulPartitionedCall/StatefulPartitionedCall/predict/MobilenetV3/expanded_conv_11/squeeze_excite/mul", "StatefulPartitionedCall/StatefulPartitionedCall/predict/MobilenetV3/expanded_conv_11/project/Conv2D_weights", "StatefulPartitionedCall/StatefulPartitionedCall/predict/MobilenetV3/expanded_conv_11/project/Conv2D_bn_offset"], "device": "/device:CPU:0", "attr": {"data_format": {"s": "TkhXQw=="}, "fused_ops": {"list": {"s": ["Qmlhc0FkZA=="]}}, "epsilon": {"f": 0.0}, "use_cudnn_on_gpu": {"b": true}, "num_args": {"i": "1"}, "T": {"type": "DT_FLOAT"}, "padding": {"s": "U0FNRQ=="}, "dilations": {"list": {"i": ["1", "1", "1", "1"]}}, "explicit_paddings": {"list": {}}, "strides": {"list": {"i": ["1", "1", "1", "1"]}}}}, {"name": "StatefulPartitionedCall/StatefulPartitionedCall/predict/MobilenetV3/expanded_conv_11/add", "op": "AddV2", "input": ["StatefulPartitionedCall/StatefulPartitionedCall/predict/MobilenetV3/expanded_conv_11/project/BatchNorm/FusedBatchNormV3", "StatefulPartitionedCall/StatefulPartitionedCall/predict/MobilenetV3/expanded_conv_10/project/BatchNorm/FusedBatchNormV3"], "attr": {"T": {"type": "DT_FLOAT"}}}, {"name": "StatefulPartitionedCall/StatefulPartitionedCall/predict/MobilenetV3/expanded_conv_12/expand/BatchNorm/FusedBatchNormV3", "op": "_FusedConv2D", "input": ["StatefulPartitionedCall/StatefulPartitionedCall/predict/MobilenetV3/expanded_conv_11/add", "StatefulPartitionedCall/StatefulPartitionedCall/predict/MobilenetV3/expanded_conv_12/expand/Conv2D_weights", "StatefulPartitionedCall/StatefulPartitionedCall/predict/MobilenetV3/expanded_conv_12/expand/Conv2D_bn_offset"], "device": "/device:CPU:0", "attr": {"T": {"type": "DT_FLOAT"}, "use_cudnn_on_gpu": {"b": true}, "num_args": {"i": "1"}, "padding": {"s": "U0FNRQ=="}, "epsilon": {"f": 0.0}, "fused_ops": {"list": {"s": ["Qmlhc0FkZA=="]}}, "explicit_paddings": {"list": {}}, "dilations": {"list": {"i": ["1", "1", "1", "1"]}}, "strides": {"list": {"i": ["1", "1", "1", "1"]}}, "data_format": {"s": "TkhXQw=="}}}, {"name": "StatefulPartitionedCall/StatefulPartitionedCall/predict/MobilenetV3/expanded_conv_12/expand/hard_swish/mul", "op": "Mul", "input": ["StatefulPartitionedCall/StatefulPartitionedCall/predict/MobilenetV3/expanded_conv_12/expand/hard_swish/mul_1/y", "StatefulPartitionedCall/StatefulPartitionedCall/predict/MobilenetV3/expanded_conv_12/expand/BatchNorm/FusedBatchNormV3"], "attr": {"T": {"type": "DT_FLOAT"}, "_grappler_ArithmeticOptimizer_MinimizeBroadcasts": {"b": true}}}, {"name": "StatefulPartitionedCall/StatefulPartitionedCall/predict/MobilenetV3/expanded_conv_12/expand/hard_swish/add", "op": "AddV2", "input": ["StatefulPartitionedCall/StatefulPartitionedCall/predict/MobilenetV3/expanded_conv_12/expand/BatchNorm/FusedBatchNormV3", "StatefulPartitionedCall/StatefulPartitionedCall/predict/MobilenetV3/expanded_conv_12/expand/hard_swish/add/y"], "attr": {"T": {"type": "DT_FLOAT"}}}, {"name": "StatefulPartitionedCall/StatefulPartitionedCall/predict/MobilenetV3/expanded_conv_12/expand/hard_swish/Relu6", "op": "Relu6", "input": ["StatefulPartitionedCall/StatefulPartitionedCall/predict/MobilenetV3/expanded_conv_12/expand/hard_swish/add"], "attr": {"T": {"type": "DT_FLOAT"}}}, {"name": "StatefulPartitionedCall/StatefulPartitionedCall/predict/MobilenetV3/expanded_conv_12/expand/hard_swish/mul_1", "op": "Mul", "input": ["StatefulPartitionedCall/StatefulPartitionedCall/predict/MobilenetV3/expanded_conv_12/expand/hard_swish/mul", "StatefulPartitionedCall/StatefulPartitionedCall/predict/MobilenetV3/expanded_conv_12/expand/hard_swish/Relu6"], "attr": {"_grappler_ArithmeticOptimizer_MinimizeBroadcasts": {"b": true}, "T": {"type": "DT_FLOAT"}}}, {"name": "StatefulPartitionedCall/StatefulPartitionedCall/predict/MobilenetV3/expanded_conv_12/depthwise/depthwise", "op": "FusedDepthwiseConv2dNative", "input": ["StatefulPartitionedCall/StatefulPartitionedCall/predict/MobilenetV3/expanded_conv_12/expand/hard_swish/mul_1", "StatefulPartitionedCall/StatefulPartitionedCall/predict/MobilenetV3/expanded_conv_12/depthwise/depthwise_weights", "StatefulPartitionedCall/StatefulPartitionedCall/predict/MobilenetV3/expanded_conv_12/depthwise/depthwise_bn_offset"], "attr": {"num_args": {"i": "1"}, "fused_ops": {"list": {"s": ["Qmlhc0FkZA=="]}}, "data_format": {"s": "TkhXQw=="}, "T": {"type": "DT_FLOAT"}, "strides": {"list": {"i": ["1", "2", "2", "1"]}}, "dilations": {"list": {"i": ["1", "1", "1", "1"]}}, "padding": {"s": "U0FNRQ=="}, "explicit_paddings": {"list": {}}}}, {"name": "StatefulPartitionedCall/StatefulPartitionedCall/predict/MobilenetV3/expanded_conv_12/depthwise/hard_swish/mul", "op": "Mul", "input": ["StatefulPartitionedCall/StatefulPartitionedCall/predict/MobilenetV3/expanded_conv_12/depthwise/hard_swish/mul_1/y", "StatefulPartitionedCall/StatefulPartitionedCall/predict/MobilenetV3/expanded_conv_12/depthwise/depthwise"], "attr": {"T": {"type": "DT_FLOAT"}, "_grappler_ArithmeticOptimizer_MinimizeBroadcasts": {"b": true}}}, {"name": "StatefulPartitionedCall/StatefulPartitionedCall/predict/MobilenetV3/expanded_conv_12/depthwise/hard_swish/add", "op": "AddV2", "input": ["StatefulPartitionedCall/StatefulPartitionedCall/predict/MobilenetV3/expanded_conv_12/depthwise/depthwise", "StatefulPartitionedCall/StatefulPartitionedCall/predict/MobilenetV3/expanded_conv_12/depthwise/hard_swish/add/y"], "attr": {"T": {"type": "DT_FLOAT"}}}, {"name": "StatefulPartitionedCall/StatefulPartitionedCall/predict/MobilenetV3/expanded_conv_12/depthwise/hard_swish/Relu6", "op": "Relu6", "input": ["StatefulPartitionedCall/StatefulPartitionedCall/predict/MobilenetV3/expanded_conv_12/depthwise/hard_swish/add"], "attr": {"T": {"type": "DT_FLOAT"}}}, {"name": "StatefulPartitionedCall/StatefulPartitionedCall/predict/MobilenetV3/expanded_conv_12/depthwise/hard_swish/mul_1", "op": "Mul", "input": ["StatefulPartitionedCall/StatefulPartitionedCall/predict/MobilenetV3/expanded_conv_12/depthwise/hard_swish/mul", "StatefulPartitionedCall/StatefulPartitionedCall/predict/MobilenetV3/expanded_conv_12/depthwise/hard_swish/Relu6"], "attr": {"T": {"type": "DT_FLOAT"}, "_grappler_ArithmeticOptimizer_MinimizeBroadcasts": {"b": true}}}, {"name": "StatefulPartitionedCall/StatefulPartitionedCall/predict/MobilenetV3/expanded_conv_12/squeeze_excite/Mean", "op": "Mean", "input": ["StatefulPartitionedCall/StatefulPartitionedCall/predict/MobilenetV3/expanded_conv_12/depthwise/hard_swish/mul_1", "StatefulPartitionedCall/StatefulPartitionedCall/predict/MobilenetV3/expanded_conv_12/squeeze_excite/Mean/reduction_indices"], "attr": {"Tidx": {"type": "DT_INT32"}, "keep_dims": {"b": true}, "T": {"type": "DT_FLOAT"}}}, {"name": "StatefulPartitionedCall/StatefulPartitionedCall/predict/MobilenetV3/expanded_conv_12/squeeze_excite/Conv/Relu", "op": "_FusedConv2D", "input": ["StatefulPartitionedCall/StatefulPartitionedCall/predict/MobilenetV3/expanded_conv_12/squeeze_excite/Mean", "Func/StatefulPartitionedCall/StatefulPartitionedCall/input/_482", "Func/StatefulPartitionedCall/StatefulPartitionedCall/input/_483"], "device": "/device:CPU:0", "attr": {"explicit_paddings": {"list": {}}, "padding": {"s": "U0FNRQ=="}, "num_args": {"i": "1"}, "fused_ops": {"list": {"s": ["Qmlhc0FkZA==", "UmVsdQ=="]}}, "epsilon": {"f": 0.0}, "data_format": {"s": "TkhXQw=="}, "strides": {"list": {"i": ["1", "1", "1", "1"]}}, "use_cudnn_on_gpu": {"b": true}, "dilations": {"list": {"i": ["1", "1", "1", "1"]}}, "T": {"type": "DT_FLOAT"}}}, {"name": "StatefulPartitionedCall/StatefulPartitionedCall/predict/MobilenetV3/expanded_conv_12/squeeze_excite/Conv_1/BiasAdd", "op": "_FusedConv2D", "input": ["StatefulPartitionedCall/StatefulPartitionedCall/predict/MobilenetV3/expanded_conv_12/squeeze_excite/Conv/Relu", "Func/StatefulPartitionedCall/StatefulPartitionedCall/input/_484", "Func/StatefulPartitionedCall/StatefulPartitionedCall/input/_485"], "device": "/device:CPU:0", "attr": {"epsilon": {"f": 0.0}, "fused_ops": {"list": {"s": ["Qmlhc0FkZA=="]}}, "use_cudnn_on_gpu": {"b": true}, "num_args": {"i": "1"}, "explicit_paddings": {"list": {}}, "dilations": {"list": {"i": ["1", "1", "1", "1"]}}, "strides": {"list": {"i": ["1", "1", "1", "1"]}}, "padding": {"s": "U0FNRQ=="}, "T": {"type": "DT_FLOAT"}, "data_format": {"s": "TkhXQw=="}}}, {"name": "StatefulPartitionedCall/StatefulPartitionedCall/predict/MobilenetV3/expanded_conv_12/squeeze_excite/Conv_1/add", "op": "AddV2", "input": ["StatefulPartitionedCall/StatefulPartitionedCall/predict/MobilenetV3/expanded_conv_12/squeeze_excite/Conv_1/BiasAdd", "StatefulPartitionedCall/StatefulPartitionedCall/predict/MobilenetV3/expanded_conv_12/squeeze_excite/Conv_1/add/y"], "attr": {"T": {"type": "DT_FLOAT"}}}, {"name": "StatefulPartitionedCall/StatefulPartitionedCall/predict/MobilenetV3/expanded_conv_12/squeeze_excite/Conv_1/Relu6", "op": "Relu6", "input": ["StatefulPartitionedCall/StatefulPartitionedCall/predict/MobilenetV3/expanded_conv_12/squeeze_excite/Conv_1/add"], "attr": {"T": {"type": "DT_FLOAT"}}}, {"name": "StatefulPartitionedCall/StatefulPartitionedCall/predict/MobilenetV3/expanded_conv_12/squeeze_excite/Conv_1/mul", "op": "Mul", "input": ["StatefulPartitionedCall/StatefulPartitionedCall/predict/MobilenetV3/expanded_conv_12/squeeze_excite/Conv_1/mul/y", "StatefulPartitionedCall/StatefulPartitionedCall/predict/MobilenetV3/expanded_conv_12/squeeze_excite/Conv_1/Relu6"], "attr": {"T": {"type": "DT_FLOAT"}, "_grappler_ArithmeticOptimizer_MinimizeBroadcasts": {"b": true}}}, {"name": "StatefulPartitionedCall/StatefulPartitionedCall/predict/MobilenetV3/expanded_conv_12/squeeze_excite/mul", "op": "Mul", "input": ["StatefulPartitionedCall/StatefulPartitionedCall/predict/MobilenetV3/expanded_conv_12/squeeze_excite/Conv_1/mul", "StatefulPartitionedCall/StatefulPartitionedCall/predict/MobilenetV3/expanded_conv_12/depthwise/hard_swish/mul_1"], "attr": {"_grappler_ArithmeticOptimizer_MinimizeBroadcasts": {"b": true}, "T": {"type": "DT_FLOAT"}}}, {"name": "StatefulPartitionedCall/StatefulPartitionedCall/predict/MobilenetV3/expanded_conv_12/project/BatchNorm/FusedBatchNormV3", "op": "_FusedConv2D", "input": ["StatefulPartitionedCall/StatefulPartitionedCall/predict/MobilenetV3/expanded_conv_12/squeeze_excite/mul", "StatefulPartitionedCall/StatefulPartitionedCall/predict/MobilenetV3/expanded_conv_12/project/Conv2D_weights", "StatefulPartitionedCall/StatefulPartitionedCall/predict/MobilenetV3/expanded_conv_12/project/Conv2D_bn_offset"], "device": "/device:CPU:0", "attr": {"data_format": {"s": "TkhXQw=="}, "use_cudnn_on_gpu": {"b": true}, "fused_ops": {"list": {"s": ["Qmlhc0FkZA=="]}}, "epsilon": {"f": 0.0}, "explicit_paddings": {"list": {}}, "padding": {"s": "U0FNRQ=="}, "strides": {"list": {"i": ["1", "1", "1", "1"]}}, "num_args": {"i": "1"}, "dilations": {"list": {"i": ["1", "1", "1", "1"]}}, "T": {"type": "DT_FLOAT"}}}, {"name": "StatefulPartitionedCall/StatefulPartitionedCall/predict/MobilenetV3/expanded_conv_13/expand/BatchNorm/FusedBatchNormV3", "op": "_FusedConv2D", "input": ["StatefulPartitionedCall/StatefulPartitionedCall/predict/MobilenetV3/expanded_conv_12/project/BatchNorm/FusedBatchNormV3", "StatefulPartitionedCall/StatefulPartitionedCall/predict/MobilenetV3/expanded_conv_13/expand/Conv2D_weights", "StatefulPartitionedCall/StatefulPartitionedCall/predict/MobilenetV3/expanded_conv_13/expand/Conv2D_bn_offset"], "device": "/device:CPU:0", "attr": {"use_cudnn_on_gpu": {"b": true}, "fused_ops": {"list": {"s": ["Qmlhc0FkZA=="]}}, "strides": {"list": {"i": ["1", "1", "1", "1"]}}, "num_args": {"i": "1"}, "padding": {"s": "U0FNRQ=="}, "data_format": {"s": "TkhXQw=="}, "dilations": {"list": {"i": ["1", "1", "1", "1"]}}, "T": {"type": "DT_FLOAT"}, "epsilon": {"f": 0.0}, "explicit_paddings": {"list": {}}}}, {"name": "StatefulPartitionedCall/StatefulPartitionedCall/predict/MobilenetV3/expanded_conv_13/expand/hard_swish/mul", "op": "Mul", "input": ["StatefulPartitionedCall/StatefulPartitionedCall/predict/MobilenetV3/expanded_conv_13/expand/hard_swish/mul_1/y", "StatefulPartitionedCall/StatefulPartitionedCall/predict/MobilenetV3/expanded_conv_13/expand/BatchNorm/FusedBatchNormV3"], "attr": {"T": {"type": "DT_FLOAT"}, "_grappler_ArithmeticOptimizer_MinimizeBroadcasts": {"b": true}}}, {"name": "StatefulPartitionedCall/StatefulPartitionedCall/predict/MobilenetV3/expanded_conv_13/expand/hard_swish/add", "op": "AddV2", "input": ["StatefulPartitionedCall/StatefulPartitionedCall/predict/MobilenetV3/expanded_conv_13/expand/BatchNorm/FusedBatchNormV3", "StatefulPartitionedCall/StatefulPartitionedCall/predict/MobilenetV3/expanded_conv_13/expand/hard_swish/add/y"], "attr": {"T": {"type": "DT_FLOAT"}}}, {"name": "StatefulPartitionedCall/StatefulPartitionedCall/predict/MobilenetV3/expanded_conv_13/expand/hard_swish/Relu6", "op": "Relu6", "input": ["StatefulPartitionedCall/StatefulPartitionedCall/predict/MobilenetV3/expanded_conv_13/expand/hard_swish/add"], "attr": {"T": {"type": "DT_FLOAT"}}}, {"name": "StatefulPartitionedCall/StatefulPartitionedCall/predict/MobilenetV3/expanded_conv_13/expand/hard_swish/mul_1", "op": "Mul", "input": ["StatefulPartitionedCall/StatefulPartitionedCall/predict/MobilenetV3/expanded_conv_13/expand/hard_swish/mul", "StatefulPartitionedCall/StatefulPartitionedCall/predict/MobilenetV3/expanded_conv_13/expand/hard_swish/Relu6"], "attr": {"T": {"type": "DT_FLOAT"}, "_grappler_ArithmeticOptimizer_MinimizeBroadcasts": {"b": true}}}, {"name": "StatefulPartitionedCall/StatefulPartitionedCall/predict/MobilenetV3/expanded_conv_13/depthwise/depthwise", "op": "FusedDepthwiseConv2dNative", "input": ["StatefulPartitionedCall/StatefulPartitionedCall/predict/MobilenetV3/expanded_conv_13/expand/hard_swish/mul_1", "StatefulPartitionedCall/StatefulPartitionedCall/predict/MobilenetV3/expanded_conv_13/depthwise/depthwise_weights", "StatefulPartitionedCall/StatefulPartitionedCall/predict/MobilenetV3/expanded_conv_13/depthwise/depthwise_bn_offset"], "attr": {"T": {"type": "DT_FLOAT"}, "num_args": {"i": "1"}, "explicit_paddings": {"list": {}}, "padding": {"s": "U0FNRQ=="}, "strides": {"list": {"i": ["1", "1", "1", "1"]}}, "fused_ops": {"list": {"s": ["Qmlhc0FkZA=="]}}, "data_format": {"s": "TkhXQw=="}, "dilations": {"list": {"i": ["1", "1", "1", "1"]}}}}, {"name": "StatefulPartitionedCall/StatefulPartitionedCall/predict/MobilenetV3/expanded_conv_13/depthwise/hard_swish/mul", "op": "Mul", "input": ["StatefulPartitionedCall/StatefulPartitionedCall/predict/MobilenetV3/expanded_conv_13/depthwise/hard_swish/mul_1/y", "StatefulPartitionedCall/StatefulPartitionedCall/predict/MobilenetV3/expanded_conv_13/depthwise/depthwise"], "attr": {"T": {"type": "DT_FLOAT"}, "_grappler_ArithmeticOptimizer_MinimizeBroadcasts": {"b": true}}}, {"name": "StatefulPartitionedCall/StatefulPartitionedCall/predict/MobilenetV3/expanded_conv_13/depthwise/hard_swish/add", "op": "AddV2", "input": ["StatefulPartitionedCall/StatefulPartitionedCall/predict/MobilenetV3/expanded_conv_13/depthwise/depthwise", "StatefulPartitionedCall/StatefulPartitionedCall/predict/MobilenetV3/expanded_conv_13/depthwise/hard_swish/add/y"], "attr": {"T": {"type": "DT_FLOAT"}}}, {"name": "StatefulPartitionedCall/StatefulPartitionedCall/predict/MobilenetV3/expanded_conv_13/depthwise/hard_swish/Relu6", "op": "Relu6", "input": ["StatefulPartitionedCall/StatefulPartitionedCall/predict/MobilenetV3/expanded_conv_13/depthwise/hard_swish/add"], "attr": {"T": {"type": "DT_FLOAT"}}}, {"name": "StatefulPartitionedCall/StatefulPartitionedCall/predict/MobilenetV3/expanded_conv_13/depthwise/hard_swish/mul_1", "op": "Mul", "input": ["StatefulPartitionedCall/StatefulPartitionedCall/predict/MobilenetV3/expanded_conv_13/depthwise/hard_swish/mul", "StatefulPartitionedCall/StatefulPartitionedCall/predict/MobilenetV3/expanded_conv_13/depthwise/hard_swish/Relu6"], "attr": {"T": {"type": "DT_FLOAT"}, "_grappler_ArithmeticOptimizer_MinimizeBroadcasts": {"b": true}}}, {"name": "StatefulPartitionedCall/StatefulPartitionedCall/predict/MobilenetV3/expanded_conv_13/squeeze_excite/Mean", "op": "Mean", "input": ["StatefulPartitionedCall/StatefulPartitionedCall/predict/MobilenetV3/expanded_conv_13/depthwise/hard_swish/mul_1", "StatefulPartitionedCall/StatefulPartitionedCall/predict/MobilenetV3/expanded_conv_13/squeeze_excite/Mean/reduction_indices"], "attr": {"Tidx": {"type": "DT_INT32"}, "T": {"type": "DT_FLOAT"}, "keep_dims": {"b": true}}}, {"name": "StatefulPartitionedCall/StatefulPartitionedCall/predict/MobilenetV3/expanded_conv_13/squeeze_excite/Conv/Relu", "op": "_FusedConv2D", "input": ["StatefulPartitionedCall/StatefulPartitionedCall/predict/MobilenetV3/expanded_conv_13/squeeze_excite/Mean", "Func/StatefulPartitionedCall/StatefulPartitionedCall/input/_501", "Func/StatefulPartitionedCall/StatefulPartitionedCall/input/_502"], "device": "/device:CPU:0", "attr": {"strides": {"list": {"i": ["1", "1", "1", "1"]}}, "data_format": {"s": "TkhXQw=="}, "T": {"type": "DT_FLOAT"}, "padding": {"s": "U0FNRQ=="}, "fused_ops": {"list": {"s": ["Qmlhc0FkZA==", "UmVsdQ=="]}}, "dilations": {"list": {"i": ["1", "1", "1", "1"]}}, "explicit_paddings": {"list": {}}, "epsilon": {"f": 0.0}, "use_cudnn_on_gpu": {"b": true}, "num_args": {"i": "1"}}}, {"name": "StatefulPartitionedCall/StatefulPartitionedCall/predict/MobilenetV3/expanded_conv_13/squeeze_excite/Conv_1/BiasAdd", "op": "_FusedConv2D", "input": ["StatefulPartitionedCall/StatefulPartitionedCall/predict/MobilenetV3/expanded_conv_13/squeeze_excite/Conv/Relu", "Func/StatefulPartitionedCall/StatefulPartitionedCall/input/_503", "Func/StatefulPartitionedCall/StatefulPartitionedCall/input/_504"], "device": "/device:CPU:0", "attr": {"dilations": {"list": {"i": ["1", "1", "1", "1"]}}, "padding": {"s": "U0FNRQ=="}, "num_args": {"i": "1"}, "explicit_paddings": {"list": {}}, "epsilon": {"f": 0.0}, "use_cudnn_on_gpu": {"b": true}, "fused_ops": {"list": {"s": ["Qmlhc0FkZA=="]}}, "T": {"type": "DT_FLOAT"}, "strides": {"list": {"i": ["1", "1", "1", "1"]}}, "data_format": {"s": "TkhXQw=="}}}, {"name": "StatefulPartitionedCall/StatefulPartitionedCall/predict/MobilenetV3/expanded_conv_13/squeeze_excite/Conv_1/add", "op": "AddV2", "input": ["StatefulPartitionedCall/StatefulPartitionedCall/predict/MobilenetV3/expanded_conv_13/squeeze_excite/Conv_1/BiasAdd", "StatefulPartitionedCall/StatefulPartitionedCall/predict/MobilenetV3/expanded_conv_13/squeeze_excite/Conv_1/add/y"], "attr": {"T": {"type": "DT_FLOAT"}}}, {"name": "StatefulPartitionedCall/StatefulPartitionedCall/predict/MobilenetV3/expanded_conv_13/squeeze_excite/Conv_1/Relu6", "op": "Relu6", "input": ["StatefulPartitionedCall/StatefulPartitionedCall/predict/MobilenetV3/expanded_conv_13/squeeze_excite/Conv_1/add"], "attr": {"T": {"type": "DT_FLOAT"}}}, {"name": "StatefulPartitionedCall/StatefulPartitionedCall/predict/MobilenetV3/expanded_conv_13/squeeze_excite/Conv_1/mul", "op": "Mul", "input": ["StatefulPartitionedCall/StatefulPartitionedCall/predict/MobilenetV3/expanded_conv_13/squeeze_excite/Conv_1/mul/y", "StatefulPartitionedCall/StatefulPartitionedCall/predict/MobilenetV3/expanded_conv_13/squeeze_excite/Conv_1/Relu6"], "attr": {"T": {"type": "DT_FLOAT"}, "_grappler_ArithmeticOptimizer_MinimizeBroadcasts": {"b": true}}}, {"name": "StatefulPartitionedCall/StatefulPartitionedCall/predict/MobilenetV3/expanded_conv_13/squeeze_excite/mul", "op": "Mul", "input": ["StatefulPartitionedCall/StatefulPartitionedCall/predict/MobilenetV3/expanded_conv_13/squeeze_excite/Conv_1/mul", "StatefulPartitionedCall/StatefulPartitionedCall/predict/MobilenetV3/expanded_conv_13/depthwise/hard_swish/mul_1"], "attr": {"_grappler_ArithmeticOptimizer_MinimizeBroadcasts": {"b": true}, "T": {"type": "DT_FLOAT"}}}, {"name": "StatefulPartitionedCall/StatefulPartitionedCall/predict/MobilenetV3/expanded_conv_13/project/BatchNorm/FusedBatchNormV3", "op": "_FusedConv2D", "input": ["StatefulPartitionedCall/StatefulPartitionedCall/predict/MobilenetV3/expanded_conv_13/squeeze_excite/mul", "StatefulPartitionedCall/StatefulPartitionedCall/predict/MobilenetV3/expanded_conv_13/project/Conv2D_weights", "StatefulPartitionedCall/StatefulPartitionedCall/predict/MobilenetV3/expanded_conv_13/project/Conv2D_bn_offset"], "device": "/device:CPU:0", "attr": {"explicit_paddings": {"list": {}}, "strides": {"list": {"i": ["1", "1", "1", "1"]}}, "T": {"type": "DT_FLOAT"}, "padding": {"s": "U0FNRQ=="}, "epsilon": {"f": 0.0}, "use_cudnn_on_gpu": {"b": true}, "num_args": {"i": "1"}, "data_format": {"s": "TkhXQw=="}, "fused_ops": {"list": {"s": ["Qmlhc0FkZA=="]}}, "dilations": {"list": {"i": ["1", "1", "1", "1"]}}}}, {"name": "StatefulPartitionedCall/StatefulPartitionedCall/predict/MobilenetV3/expanded_conv_13/add", "op": "AddV2", "input": ["StatefulPartitionedCall/StatefulPartitionedCall/predict/MobilenetV3/expanded_conv_13/project/BatchNorm/FusedBatchNormV3", "StatefulPartitionedCall/StatefulPartitionedCall/predict/MobilenetV3/expanded_conv_12/project/BatchNorm/FusedBatchNormV3"], "attr": {"T": {"type": "DT_FLOAT"}}}, {"name": "StatefulPartitionedCall/StatefulPartitionedCall/predict/MobilenetV3/expanded_conv_14/expand/BatchNorm/FusedBatchNormV3", "op": "_FusedConv2D", "input": ["StatefulPartitionedCall/StatefulPartitionedCall/predict/MobilenetV3/expanded_conv_13/add", "StatefulPartitionedCall/StatefulPartitionedCall/predict/MobilenetV3/expanded_conv_14/expand/Conv2D_weights", "StatefulPartitionedCall/StatefulPartitionedCall/predict/MobilenetV3/expanded_conv_14/expand/Conv2D_bn_offset"], "device": "/device:CPU:0", "attr": {"epsilon": {"f": 0.0}, "use_cudnn_on_gpu": {"b": true}, "explicit_paddings": {"list": {}}, "data_format": {"s": "TkhXQw=="}, "T": {"type": "DT_FLOAT"}, "fused_ops": {"list": {"s": ["Qmlhc0FkZA=="]}}, "strides": {"list": {"i": ["1", "1", "1", "1"]}}, "dilations": {"list": {"i": ["1", "1", "1", "1"]}}, "padding": {"s": "U0FNRQ=="}, "num_args": {"i": "1"}}}, {"name": "StatefulPartitionedCall/Statefu…
_FusedConv2D", "input": ["StatefulPartitionedCall/StatefulPartitionedCall/predict/MobilenetV3/expanded_conv_14/add", "StatefulPartitionedCall/StatefulPartitionedCall/predict/MobilenetV3/Conv_1/Conv2D_weights", "StatefulPartitionedCall/StatefulPartitionedCall/predict/MobilenetV3/Conv_1/Conv2D_bn_offset"], "device": "/device:CPU:0", "attr": {"padding": {"s": "U0FNRQ=="}, "T": {"type": "DT_FLOAT"}, "dilations": {"list": {"i": ["1", "1", "1", "1"]}}, "fused_ops": {"list": {"s": ["Qmlhc0FkZA=="]}}, "epsilon": {"f": 0.0}, "strides": {"list": {"i": ["1", "1", "1", "1"]}}, "data_format": {"s": "TkhXQw=="}, "use_cudnn_on_gpu": {"b": true}, "num_args": {"i": "1"}, "explicit_paddings": {"list": {}}}}, {"name": "StatefulPartitionedCall/StatefulPartitionedCall/predict/MobilenetV3/Conv_1/hard_swish/mul", "op": "Mul", "input": ["StatefulPartitionedCall/StatefulPartitionedCall/predict/MobilenetV3/Conv_1/hard_swish/mul_1/y", "StatefulPartitionedCall/StatefulPartitionedCall/predict/MobilenetV3/Conv_1/BatchNorm/FusedBatchNormV3"], "attr": {"T": {"type": "DT_FLOAT"}, "_grappler_ArithmeticOptimizer_MinimizeBroadcasts": {"b": true}}}, {"name": "StatefulPartitionedCall/StatefulPartitionedCall/predict/MobilenetV3/Conv_1/hard_swish/add", "op": "AddV2", "input": ["StatefulPartitionedCall/StatefulPartitionedCall/predict/MobilenetV3/Conv_1/BatchNorm/FusedBatchNormV3", "StatefulPartitionedCall/StatefulPartitionedCall/predict/MobilenetV3/Conv_1/hard_swish/add/y"], "attr": {"T": {"type": "DT_FLOAT"}}}, {"name": "StatefulPartitionedCall/StatefulPartitionedCall/predict/MobilenetV3/Conv_1/hard_swish/Relu6", "op": "Relu6", "input": ["StatefulPartitionedCall/StatefulPartitionedCall/predict/MobilenetV3/Conv_1/hard_swish/add"], "attr": {"T": {"type": "DT_FLOAT"}}}, {"name": "StatefulPartitionedCall/StatefulPartitionedCall/predict/MobilenetV3/Conv_1/hard_swish/mul_1", "op": "Mul", "input": ["StatefulPartitionedCall/StatefulPartitionedCall/predict/MobilenetV3/Conv_1/hard_swish/mul", "StatefulPartitionedCall/StatefulPartitionedCall/predict/MobilenetV3/Conv_1/hard_swish/Relu6"], "attr": {"_grappler_ArithmeticOptimizer_MinimizeBroadcasts": {"b": true}, "T": {"type": "DT_FLOAT"}}}, {"name": "StatefulPartitionedCall/StatefulPartitionedCall/predict/MobilenetV3/AvgPool2D/AvgPool", "op": "AvgPool", "input": ["StatefulPartitionedCall/StatefulPartitionedCall/predict/MobilenetV3/Conv_1/hard_swish/mul_1"], "attr": {"T": {"type": "DT_FLOAT"}, "padding": {"s": "VkFMSUQ="}, "strides": {"list": {"i": ["1", "1", "1", "1"]}}, "data_format": {"s": "TkhXQw=="}, "ksize": {"list": {"i": ["1", "7", "7", "1"]}}}}, {"name": "StatefulPartitionedCall/StatefulPartitionedCall/predict/MobilenetV3/Conv_2/BiasAdd", "op": "_FusedConv2D", "input": ["StatefulPartitionedCall/StatefulPartitionedCall/predict/MobilenetV3/AvgPool2D/AvgPool", "Func/StatefulPartitionedCall/StatefulPartitionedCall/input/_534", "Func/StatefulPartitionedCall/StatefulPartitionedCall/input/_535"], "device": "/device:CPU:0", "attr": {"use_cudnn_on_gpu": {"b": true}, "explicit_paddings": {"list": {}}, "dilations": {"list": {"i": ["1", "1", "1", "1"]}}, "T": {"type": "DT_FLOAT"}, "num_args": {"i": "1"}, "fused_ops": {"list": {"s": ["Qmlhc0FkZA=="]}}, "data_format": {"s": "TkhXQw=="}, "epsilon": {"f": 0.0}, "padding": {"s": "U0FNRQ=="}, "strides": {"list": {"i": ["1", "1", "1", "1"]}}}}, {"name": "StatefulPartitionedCall/StatefulPartitionedCall/predict/MobilenetV3/Conv_2/hard_swish/mul", "op": "Mul", "input": ["StatefulPartitionedCall/StatefulPartitionedCall/predict/MobilenetV3/Conv_2/hard_swish/mul_1/y", "StatefulPartitionedCall/StatefulPartitionedCall/predict/MobilenetV3/Conv_2/BiasAdd"], "attr": {"_grappler_ArithmeticOptimizer_MinimizeBroadcasts": {"b": true}, "T": {"type": "DT_FLOAT"}}}, {"name": "StatefulPartitionedCall/StatefulPartitionedCall/predict/MobilenetV3/Conv_2/hard_swish/add", "op": "AddV2", "input": ["StatefulPartitionedCall/StatefulPartitionedCall/predict/MobilenetV3/Conv_2/BiasAdd", "StatefulPartitionedCall/StatefulPartitionedCall/predict/MobilenetV3/Conv_2/hard_swish/add/y"], "attr": {"T": {"type": "DT_FLOAT"}}}, {"name": "StatefulPartitionedCall/StatefulPartitionedCall/predict/MobilenetV3/Conv_2/hard_swish/Relu6", "op": "Relu6", "input": ["StatefulPartitionedCall/StatefulPartitionedCall/predict/MobilenetV3/Conv_2/hard_swish/add"], "attr": {"T": {"type": "DT_FLOAT"}}}, {"name": "StatefulPartitionedCall/StatefulPartitionedCall/predict/MobilenetV3/Conv_2/hard_swish/mul_1", "op": "Mul", "input": ["StatefulPartitionedCall/StatefulPartitionedCall/predict/MobilenetV3/Conv_2/hard_swish/mul", "StatefulPartitionedCall/StatefulPartitionedCall/predict/MobilenetV3/Conv_2/hard_swish/Relu6"], "attr": {"T": {"type": "DT_FLOAT"}, "_grappler_ArithmeticOptimizer_MinimizeBroadcasts": {"b": true}}}, {"name": "StatefulPartitionedCall/StatefulPartitionedCall/predict/MobilenetV3/Logits/AvgPool", "op": "AvgPool", "input": ["StatefulPartitionedCall/StatefulPartitionedCall/predict/MobilenetV3/Conv_2/hard_swish/mul_1"], "attr": {"padding": {"s": "VkFMSUQ="}, "ksize": {"list": {"i": ["1", "1", "1", "1"]}}, "data_format": {"s": "TkhXQw=="}, "strides": {"list": {"i": ["1", "1", "1", "1"]}}, "T": {"type": "DT_FLOAT"}}}, {"name": "StatefulPartitionedCall/StatefulPartitionedCall/predict/MobilenetV3/Logits/Conv2d_1c_1x1/BiasAdd", "op": "_FusedConv2D", "input": ["StatefulPartitionedCall/StatefulPartitionedCall/predict/MobilenetV3/Logits/AvgPool", "Func/StatefulPartitionedCall/StatefulPartitionedCall/input/_536", "Func/StatefulPartitionedCall/StatefulPartitionedCall/input/_537"], "device": "/device:CPU:0", "attr": {"strides": {"list": {"i": ["1", "1", "1", "1"]}}, "num_args": {"i": "1"}, "explicit_paddings": {"list": {}}, "epsilon": {"f": 0.0}, "dilations": {"list": {"i": ["1", "1", "1", "1"]}}, "data_format": {"s": "TkhXQw=="}, "use_cudnn_on_gpu": {"b": true}, "padding": {"s": "U0FNRQ=="}, "fused_ops": {"list": {"s": ["Qmlhc0FkZA=="]}}, "T": {"type": "DT_FLOAT"}}}, {"name": "StatefulPartitionedCall/StatefulPartitionedCall/predict/MobilenetV3/Logits/Squeeze", "op": "Squeeze", "input": ["StatefulPartitionedCall/StatefulPartitionedCall/predict/MobilenetV3/Logits/Conv2d_1c_1x1/BiasAdd"], "attr": {"squeeze_dims": {"list": {"i": ["1", "2"]}}, "T": {"type": "DT_FLOAT"}}}, {"name": "Identity", "op": "Identity", "input": ["StatefulPartitionedCall/StatefulPartitionedCall/predict/MobilenetV3/Logits/Squeeze"], "attr": {"T": {"type": "DT_FLOAT"}}}], "library": {}, "versions": {"producer": 561}}, "userDefinedMetadata": {"classNames": ["background", "tench", "goldfish", "great white shark", "tiger shark", "hammerhead", "electric ray", "stingray", "cock", "hen", "ostrich", "brambling", "goldfinch", "house finch", "junco", "indigo bunting", "robin", "bulbul", "jay", "magpie", "chickadee", "water ouzel", "kite", "bald eagle", "vulture", "great grey owl", "European fire salamander", "common newt", "eft", "spotted salamander", "axolotl", "bullfrog", "tree frog", "tailed frog", "loggerhead", "leatherback turtle", "mud turtle", "terrapin", "box turtle", "banded gecko", "common iguana", "American chameleon", "whiptail", "agama", "frilled lizard", "alligator lizard", "Gila monster", "green lizard", "African chameleon", "Komodo dragon", "African crocodile", "American alligator", "triceratops", "thunder snake", "ringneck snake", "hognose snake", "green snake", "king snake", "garter snake", "water snake", "vine snake", "night snake", "boa constrictor", "rock python", "Indian cobra", "green mamba", "sea snake", "horned viper", "diamondback", "sidewinder", "trilobite", "harvestman", "scorpion", "black and gold garden spider", "barn spider", "garden spider", "black widow", "tarantula", "wolf spider", "tick", "centipede", "black grouse", "ptarmigan", "ruffed grouse", "prairie chicken", "peacock", "quail", "partridge", "African grey", "macaw", "sulphur-crested cockatoo", "lorikeet", "coucal", "bee eater", "hornbill", "hummingbird", "jacamar", "toucan", "drake", "red-breasted merganser", "goose", "black swan", "tusker", "echidna", "platypus", "wallaby", "koala", "wombat", "jellyfish", "sea anemone", "brain coral", "flatworm", "nematode", "conch", "snail", "slug", "sea slug", "chiton", "chambered nautilus", "Dungeness crab", "rock crab", "fiddler crab", "king crab", "American lobster", "spiny lobster", "crayfish", "hermit crab", "isopod", "white stork", "black stork", "spoonbill", "flamingo", "little blue heron", "American egret", "bittern", "crane", "limpkin", "European gallinule", "American coot", "bustard", "ruddy turnstone", "red-backed sandpiper", "redshank", "dowitcher", "oystercatcher", "pelican", "king penguin", "albatross", "grey whale", "killer whale", "dugong", "sea lion", "Chihuahua", "Japanese spaniel", "Maltese dog", "Pekinese", "Shih-Tzu", "Blenheim spaniel", "papillon", "toy terrier", "Rhodesian ridgeback", "Afghan hound", "basset", "beagle", "bloodhound", "bluetick", "black-and-tan coonhound", "Walker hound", "English foxhound", "redbone", "borzoi", "Irish wolfhound", "Italian greyhound", "whippet", "Ibizan hound", "Norwegian elkhound", "otterhound", "Saluki", "Scottish deerhound", "Weimaraner", "Staffordshire bullterrier", "American Staffordshire terrier", "Bedlington terrier", "Border terrier", "Kerry blue terrier", "Irish terrier", "Norfolk terrier", "Norwich terrier", "Yorkshire terrier", "wire-haired fox terrier", "Lakeland terrier", "Sealyham terrier", "Airedale", "cairn", "Australian terrier", "Dandie Dinmont", "Boston bull", "miniature schnauzer", "giant schnauzer", "standard schnauzer", "Scotch terrier", "Tibetan terrier", "silky terrier", "soft-coated wheaten terrier", "West Highland white terrier", "Lhasa", "flat-coated retriever", "curly-coated retriever", "golden retriever", "Labrador retriever", "Chesapeake Bay retriever", "German short-haired pointer", "vizsla", "English setter", "Irish setter", "Gordon setter", "Brittany spaniel", "clumber", "English springer", "Welsh springer spaniel", "cocker spaniel", "Sussex spaniel", "Irish water spaniel", "kuvasz", "schipperke", "groenendael", "malinois", "briard", "kelpie", "komondor", "Old English sheepdog", "Shetland sheepdog", "collie", "Border collie", "Bouvier des Flandres", "Rottweiler", "German shepherd", "Doberman", "miniature pinscher", "Greater Swiss Mountain dog", "Bernese mountain dog", "Appenzeller", "EntleBucher", "boxer", "bull mastiff", "Tibetan mastiff", "French bulldog", "Great Dane", "Saint Bernard", "Eskimo dog", "malamute", "Siberian husky", "dalmatian", "affenpinscher", "basenji", "pug", "Leonberg", "Newfoundland", "Great Pyrenees", "Samoyed", "Pomeranian", "chow", "keeshond", "Brabancon griffon", "Pembroke", "Cardigan", "toy poodle", "miniature poodle", "standard poodle", "Mexican hairless", "timber wolf", "white wolf", "red wolf", "coyote", "dingo", "dhole", "African hunting dog", "hyena", "red fox", "kit fox", "Arctic fox", "grey fox", "tabby", "tiger cat", "Persian cat", "Siamese cat", "Egyptian cat", "cougar", "lynx", "leopard", "snow leopard", "jaguar", "lion", "tiger", "cheetah", "brown bear", "American black bear", "ice bear", "sloth bear", "mongoose", "meerkat", "tiger beetle", "ladybug", "ground beetle", "long-horned beetle", "leaf beetle", "dung beetle", "rhinoceros beetle", "weevil", "fly", "bee", "ant", "grasshopper", "cricket", "walking stick", "cockroach", "mantis", "cicada", "leafhopper", "lacewing", "dragonfly", "damselfly", "admiral", "ringlet", "monarch", "cabbage butterfly", "sulphur butterfly", "lycaenid", "starfish", "sea urchin", "sea cucumber", "wood rabbit", "hare", "Angora", "hamster", "porcupine", "fox squirrel", "marmot", "beaver", "guinea pig", "sorrel", "zebra", "hog", "wild boar", "warthog", "hippopotamus", "ox", "water buffalo", "bison", "ram", "bighorn", "ibex", "hartebeest", "impala", "gazelle", "Arabian camel", "llama", "weasel", "mink", "polecat", "black-footed ferret", "otter", "skunk", "badger", "armadillo", "three-toed sloth", "orangutan", "gorilla", "chimpanzee", "gibbon", "siamang", "guenon", "patas", "baboon", "macaque", "langur", "colobus", "proboscis monkey", "marmoset", "capuchin", "howler monkey", "titi", "spider monkey", "squirrel monkey", "Madagascar cat", "indri", "Indian elephant", "African elephant", "lesser panda", "giant panda", "barracouta", "eel", "coho", "rock beauty", "anemone fish", "sturgeon", "gar", "lionfish", "puffer", "abacus", "abaya", "academic gown", "accordion", "acoustic guitar", "aircraft carrier", "airliner", "airship", "altar", "ambulance", "amphibian", "analog clock", "apiary", "apron", "ashcan", "assault rifle", "backpack", "bakery", "balance beam", "balloon", "ballpoint", "Band Aid", "banjo", "bannister", "barbell", "barber chair", "barbershop", "barn", "barometer", "barrel", "barrow", "baseball", "basketball", "bassinet", "bassoon", "bathing cap", "bath towel", "bathtub", "beach wagon", "beacon", "beaker", "bearskin", "beer bottle", "beer glass", "bell cote", "bib", "bicycle-built-for-two", "bikini", "binder", "binoculars", "birdhouse", "boathouse", "bobsled", "bolo tie", "bonnet", "bookcase", "bookshop", "bottlecap", "bow", "bow tie", "brass", "brassiere", "breakwater", "breastplate", "broom", "bucket", "buckle", "bulletproof vest", "bullet train", "butcher shop", "cab", "caldron", "candle", "cannon", "canoe", "can opener", "cardigan", "car mirror", "carousel", "carpenter's kit", "carton", "car wheel", "cash machine", "cassette", "cassette player", "castle", "catamaran", "CD player", "cello", "cellular telephone", "chain", "chainlink fence", "chain mail", "chain saw", "chest", "chiffonier", "chime", "china cabinet", "Christmas stocking", "church", "cinema", "cleaver", "cliff dwelling", "cloak", "clog", "cocktail shaker", "coffee mug", "coffeepot", "coil", "combination lock", "computer keyboard", "confectionery", "container ship", "convertible", "corkscrew", "cornet", "cowboy boot", "cowboy hat", "cradle", "crane", "crash helmet", "crate", "crib", "Crock Pot", "croquet ball", "crutch", "cuirass", "dam", "desk", "desktop computer", "dial telephone", "diaper", "digital clock", "digital watch", "dining table", "dishrag", "dishwasher", "disk brake", "dock", "dogsled", "dome", "doormat", "drilling platform", "drum", "drumstick", "dumbbell", "Dutch oven", "electric fan", "electric guitar", "electric locomotive", "entertainment center", "envelope", "espresso maker", "face powder", "feather boa", "file", "fireboat", "fire engine", "fire screen", "flagpole", "flute", "folding chair", "football helmet", "forklift", "fountain", "fountain pen", "four-poster", "freight car", "French horn", "frying pan", "fur coat", "garbage truck", "gasmask", "gas pump", "goblet", "go-kart", "golf ball", "golfcart", "gondola", "gong", "gown", "grand piano", "greenhouse", "grille", "grocery store", "guillotine", "hair slide", "hair spray", "half track", "hammer", "hamper", "hand blower", "hand-held computer", "handkerchief", "hard disc", "harmonica", "harp", "harvester", "hatchet", "holster", "home theater", "honeycomb", "hook", "hoopskirt", "horizontal bar", "horse cart", "hourglass", "iPod", "iron", "jack-o'-lantern", "jean", "jeep", "jersey", "jigsaw puzzle", "jinrikisha", "joystick", "kimono", "knee pad", "knot", "lab coat", "ladle", "lampshade", "laptop", "lawn mower", "lens cap", "letter opener", "library", "lifeboat", "lighter", "limousine", "liner", "lipstick", "Loafer", "lotion", "loudspeaker", "loupe", "lumbermill", "magnetic compass", "mailbag", "mailbox", "maillot", "maillot", "manhole cover", "maraca", "marimba", "mask", "matchstick", "maypole", "maze", "measuring cup", "medicine chest", "megalith", "microphone", "microwave", "military uniform", "milk can", "minibus", "miniskirt", "minivan", "missile", "mitten", "mixing bowl", "mobile home", "Model T", "modem", "monastery", "monitor", "moped", "mortar", "mortarboard", "mosque", "mosquito net", "motor scooter", "mountain bike", "mountain tent", "mouse", "mousetrap", "moving van", "muzzle", "nail", "neck brace", "necklace", "nipple", "notebook", "obelisk", "oboe", "ocarina", "odometer", "oil filter", "organ", "oscilloscope", "overskirt", "oxcart", "oxygen mask", "packet", "paddle", "paddlewheel", "padlock", "paintbrush", "pajama", "palace", "panpipe", "paper towel", "parachute", "parallel bars", "park bench", "parking meter", "passenger car", "patio", "pay-phone", "pedestal", "pencil box", "pencil sharpener", "perfume", "Petri dish", "photocopier", "pick", "pickelhaube", "picket fence", "pickup", "pier", "piggy bank", "pill bottle", "pillow", "ping-pong ball", "pinwheel", "pirate", "pitcher", "plane", "planetarium", "plastic bag", "plate rack", "plow", "plunger", "Polaroid camera", "pole", "police van", "poncho", "pool table", "pop bottle", "pot", "potter's wheel", "power drill", "prayer rug", "printer", "prison", "projectile", "projector", "puck", "punching bag", "purse", "quill", "quilt", "racer", "racket", "radiator", "radio", "radio telescope", "rain barrel", "recreational vehicle", "reel", "reflex camera", "refrigerator", "remote control", "restaurant", "revolver", "rifle", "rocking chair", "rotisserie", "rubber eraser", "rugby ball", "rule", "running shoe", "safe", "safety pin", "saltshaker", "sandal", "sarong", "sax", "scabbard", "scale", "school bus", "schooner", "scoreboard", "screen", "screw", "screwdriver", "seat belt", "sewing machine", "shield", "shoe shop", "shoji", "shopping basket", "shopping cart", "shovel", "shower cap", "shower curtain", "ski", "ski mask", "sleeping bag", "slide rule", "sliding door", "slot", "snorkel", "snowmobile", "snowplow", "soap dispenser", "soccer ball", "sock", "solar dish", "sombrero", "soup bowl", "space bar", "space heater", "space shuttle", "spatula", "speedboat", "spider web", "spindle", "sports car", "spotlight", "stage", "steam locomotive", "steel arch bridge", "steel drum", "stethoscope", "stole", "stone wall", "stopwatch", "stove", "strainer", "streetcar", "stretcher", "studio couch", "stupa", "submarine", "suit", "sundial", "sunglass", "sunglasses", "sunscreen", "suspension bridge", "swab", "sweatshirt", "swimming trunks", "swing", "switch", "syringe", "table lamp", "tank", "tape player", "teapot", "teddy", "television", "tennis ball", "thatch", "theater curtain", "thimble", "thresher", "throne", "tile roof", "toaster", "tobacco shop", "toilet seat", "torch", "totem pole", "tow truck", "toyshop", "tractor", "trailer truck", "tray", "trench coat", "tricycle", "trimaran", "tripod", "triumphal arch", "trolleybus", "trombone", "tub", "turnstile", "typewriter keyboard", "umbrella", "unicycle", "upright", "vacuum", "vase", "vault", "velvet", "vending machine", "vestment", "viaduct", "violin", "volleyball", "waffle iron", "wall clock", "wallet", "wardrobe", "warplane", "washbasin", "washer", "water bottle", "water jug", "water tower", "whiskey jug", "whistle", "wig", "window screen", "window shade", "Windsor tie", "wine bottle", "wing", "wok", "wooden spoon", "wool", "worm fence", "wreck", "yawl", "yurt", "web site", "comic book", "crossword puzzle", "street sign", "traffic light", "book jacket", "menu", "plate", "guacamole", "consomme", "hot pot", "trifle", "ice cream", "ice lolly", "French loaf", "bagel", "pretzel", "cheeseburger", "hotdog", "mashed potato", "head cabbage", "broccoli", "cauliflower", "zucchini", "spaghetti squash", "acorn squash", "butternut squash", "cucumber", "artichoke", "bell pepper", "cardoon", "mushroom", "Granny Smith", "strawberry", "orange", "lemon", "fig", "pineapple", "banana", "jackfruit", "custard apple", "pomegranate", "hay", "carbonara", "chocolate sauce", "dough", "meat loaf", "pizza", "potpie", "burrito", "red wine", "espresso", "cup", "eggnog", "alp", "bubble", "cliff", "coral reef", "geyser", "lakeside", "promontory", "sandbar", "seashore", "valley", "volcano", "ballplayer", "groom", "scuba diver", "rapeseed", "daisy", "yellow lady's slipper", "corn", "acorn", "hip", "buckeye", "coral fungus", "agaric", "gyromitra", "stinkhorn", "earthstar", "hen-of-the-woods", "bolete", "ear", "toilet tissue"]}, "weightsManifest": [{"paths": ["group1-shard1of6.bin", "group1-shard2of6.bin", "group1-shard3of6.bin", "group1-shard4of6.bin", "group1-shard5of6.bin", "group1-shard6of6.bin"], "weights": [{"name": "StatefulPartitionedCall/StatefulPartitionedCall/predict/MobilenetV3/Conv/Conv2D_weights", "shape": [3, 3, 3, 16], "dtype": "float32"}, {"name": "StatefulPartitionedCall/StatefulPartitionedCall/predict/MobilenetV3/Conv/Conv2D_bn_offset", "shape": [16], "dtype": "float32"}, {"name": "StatefulPartitionedCall/StatefulPartitionedCall/predict/MobilenetV3/expanded_conv/depthwise/depthwise_weights", "shape": [3, 3, 16, 1], "dtype": "float32"}, {"name": "StatefulPartitionedCall/StatefulPartitionedCall/predict/MobilenetV3/expanded_conv/depthwise/depthwise_bn_offset", "shape": [16], "dtype": "float32"}, {"name": "StatefulPartitionedCall/StatefulPartitionedCall/predict/MobilenetV3/expanded_conv/project/Conv2D_weights", "shape": [1, 1, 16, 16], "dtype": "float32"}, {"name": "StatefulPartitionedCall/StatefulPartitionedCall/predict/MobilenetV3/expanded_conv/project/Conv2D_bn_offset", "shape": [16], "dtype": "float32"}, {"name": "StatefulPartitionedCall/StatefulPartitionedCall/predict/MobilenetV3/expanded_conv_1/expand/Conv2D_weights", "shape": [1, 1, 16, 64], "dtype": "float32"}, {"name": "StatefulPartitionedCall/StatefulPartitionedCall/predict/MobilenetV3/expanded_conv_1/expand/Conv2D_bn_offset", "shape": [64], "dtype": "float32"}, {"name": "StatefulPartitionedCall/StatefulPartitionedCall/predict/MobilenetV3/expanded_conv_1/depthwise/depthwise_weights", "shape": [3, 3, 64, 1], "dtype": "float32"}, {"name": "StatefulPartitionedCall/StatefulPartitionedCall/predict/MobilenetV3/expanded_conv_1/depthwise/depthwise_bn_offset", "shape": [64], "dtype": "float32"}, {"name": "StatefulPartitionedCall/StatefulPartitionedCall/predict/MobilenetV3/expanded_conv_1/project/Conv2D_weights", "shape": [1, 1, 64, 24], "dtype": "float32"}, {"name": "StatefulPartitionedCall/StatefulPartitionedCall/predict/MobilenetV3/expanded_conv_1/project/Conv2D_bn_offset", "shape": [24], "dtype": "float32"}, {"name": "StatefulPartitionedCall/StatefulPartitionedCall/predict/MobilenetV3/expanded_conv_2/expand/Conv2D_weights", "shape": [1, 1, 24, 72], "dtype": "float32"}, {"name": "StatefulPartitionedCall/StatefulPartitionedCall/predict/MobilenetV3/expanded_conv_2/expand/Conv2D_bn_offset", "shape": [72], "dtype": "float32"}, {"name": "StatefulPartitionedCall/StatefulPartitionedCall/predict/MobilenetV3/expanded_conv_13/project/Conv2D_weights", "shape": [1, 1, 960, 160], "dtype": "float32"}, {"name": "StatefulPartitionedCall/StatefulPartitionedCall/predict/MobilenetV3/expanded_conv_2/depthwise/depthwise_weights", "shape": [3, 3, 72, 1], "dtype": "float32"}, {"name": "StatefulPartitionedCall/StatefulPartitionedCall/predict/MobilenetV3/expanded_conv_2/depthwise/depthwise_bn_offset", "shape": [72], "dtype": "float32"}, {"name": "StatefulPartitionedCall/StatefulPartitionedCall/predict/MobilenetV3/expanded_conv_2/project/Conv2D_weights", "shape": [1, 1, 72, 24], "dtype": "float32"}, {"name": "StatefulPartitionedCall/StatefulPartitionedCall/predict/MobilenetV3/expanded_conv_2/project/Conv2D_bn_offset", "shape": [24], "dtype": "float32"}, {"name": "StatefulPartitionedCall/StatefulPartitionedCall/predict/MobilenetV3/expanded_conv_3/expand/Conv2D_weights", "shape": [1, 1, 24, 72], "dtype": "float32"}, {"name": "StatefulPartitionedCall/StatefulPartitionedCall/predict/MobilenetV3/expanded_conv_13/project/Conv2D_bn_offset", "shape": [160], "dtype": "float32"}, {"name": "StatefulPartitionedCall/StatefulPartitionedCall/predict/MobilenetV3/expanded_conv_3/expand/Conv2D_bn_offset", "shape": [72], "dtype": "float32"}, {"name": "StatefulPartitionedCall/StatefulPartitionedCall/predict/MobilenetV3/expanded_conv_3/depthwise/depthwise_weights", "shape": [5, 5, 72, 1], "dtype": "float32"}, {"name": "StatefulPartitionedCall/StatefulPartitionedCall/predict/MobilenetV3/expanded_conv_3/depthwise/depthwise_bn_offset", "shape": [72], "dtype": "float32"}, {"name": "StatefulPartitionedCall/StatefulPartitionedCall/predict/MobilenetV3/expanded_conv_14/expand/Conv2D_weights", "shape": [1, 1, 160, 960], "dtype": "float32"}, {"name": "StatefulPartitionedCall/StatefulPartitionedCall/predict/MobilenetV3/expanded_conv_3/project/Conv2D_weights", "shape": [1, 1, 72, 40], "dtype": "float32"}, {"name": "StatefulPartitionedCall/StatefulPartitionedCall/predict/MobilenetV3/expanded_conv_14/expand/Conv2D_bn_offset", "shape": [960], "dtype": "float32"}, {"name": "StatefulPartitionedCall/StatefulPartitionedCall/predict/MobilenetV3/expanded_conv_3/project/Conv2D_bn_offset", "shape": [40], "dtype": "float32"}, {"name": "StatefulPartitionedCall/StatefulPartitionedCall/predict/MobilenetV3/expanded_conv_4/expand/Conv2D_weights", "shape": [1, 1, 40, 120], "dtype": "float32"}, {"name": "StatefulPartitionedCall/StatefulPartitionedCall/predict/MobilenetV3/expanded_conv_4/expand/Conv2D_bn_offset", "shape": [120], "dtype": "float32"}, {"name": "StatefulPartitionedCall/StatefulPartitionedCall/predict/MobilenetV3/expanded_conv_4/depthwise/depthwise_weights", "shape": [5, 5, 120, 1], "dtype": "float32"}, {"name": "StatefulPartitionedCall/StatefulPartitionedCall/predict/MobilenetV3/expanded_conv_4/depthwise/depthwise_bn_offset", "shape": [120], "dtype": "float32"}, {"name": "StatefulPartitionedCall/StatefulPartitionedCall/predict/MobilenetV3/expanded_conv_4/project/Conv2D_weights", "shape": [1, 1, 120, 40], "dtype": "float32"}, {"name": "StatefulPartitionedCall/StatefulPartitionedCall/predict/MobilenetV3/expanded_conv_14/depthwise/depthwise_weights", "shape": [5, 5, 960, 1], "dtype": "float32"}, {"name": "StatefulPartitionedCall/StatefulPartitionedCall/predict/MobilenetV3/expanded_conv_4/project/Conv2D_bn_offset", "shape": [40], "dtype": "float32"}, {"name": "StatefulPartitionedCall/StatefulPartitionedCall/predict/MobilenetV3/expanded_conv_5/expand/Conv2D_weights", "shape": [1, 1, 40, 120], "dtype": "float32"}, {"name": "StatefulPartitionedCall/StatefulPartitionedCall/predict/MobilenetV3/expanded_conv_5/expand/Conv2D_bn_offset", "shape": [120], "dtype": "float32"}, {"name": "StatefulPartitionedCall/StatefulPartitionedCall/predict/MobilenetV3/expanded_conv_14/depthwise/depthwise_bn_offset", "shape": [960], "dtype": "float32"}, {"name": "StatefulPartitionedCall/StatefulPartitionedCall/predict/MobilenetV3/expanded_conv_5/depthwise/depthwise_weights", "shape": [5, 5, 120, 1], "dtype": "float32"}, {"name": "StatefulPartitionedCall/StatefulPartitionedCall/predict/MobilenetV3/expanded_conv_5/depthwise/depthwise_bn_offset", "shape": [120], "dtype": "float32"}, {"name": "StatefulPartitionedCall/StatefulPartitionedCall/predict/MobilenetV3/expanded_conv_5/project/Conv2D_weights", "shape": [1, 1, 120, 40], "dtype": "float32"}, {"name": "StatefulPartitionedCall/StatefulPartitionedCall/predict/MobilenetV3/expanded_conv_5/project/Conv2D_bn_offset", "shape": [40], "dtype": "float32"}, {"name": "StatefulPartitionedCall/StatefulPartitionedCall/predict/MobilenetV3/expanded_conv_6/expand/Conv2D_weights", "shape": [1, 1, 40, 240], "dtype": "float32"}, {"name": "StatefulPartitionedCall/StatefulPartitionedCall/predict/MobilenetV3/expanded_conv_6/expand/Conv2D_bn_offset", "shape": [240], "dtype": "float32"}, {"name": "StatefulPartitionedCall/StatefulPartitionedCall/predict/MobilenetV3/expanded_conv_6/depthwise/depthwise_weights", "shape": [3, 3, 240, 1], "dtype": "float32"}, {"name": "StatefulPartitionedCall/StatefulPartitionedCall/predict/MobilenetV3/expanded_conv_6/depthwise/depthwise_bn_offset", "shape": [240], "dtype": "float32"}, {"name": "StatefulPartitionedCall/StatefulPartitionedCall/predict/MobilenetV3/expanded_conv_6/project/Conv2D_weights", "shape": [1, 1, 240, 80], "dtype": "float32"}, {"name": "StatefulPartitionedCall/StatefulPartitionedCall/predict/MobilenetV3/expanded_conv_6/project/Conv2D_bn_offset", "shape": [80], "dtype": "float32"}, {"name": "StatefulPartitionedCall/StatefulPartitionedCall/predict/MobilenetV3/expanded_conv_7/expand/Conv2D_weights", "shape": [1, 1, 80, 200], "dtype": "float32"}, {"name": "StatefulPartitionedCall/StatefulPartitionedCall/predict/MobilenetV3/expanded_conv_7/expand/Conv2D_bn_offset", "shape": [200], "dtype": "float32"}, {"name": "StatefulPartitionedCall/StatefulPartitionedCall/predict/MobilenetV3/expanded_conv_7/depthwise/depthwise_weights", "shape": [3, 3, 200, 1], "dtype": "float32"}, {"name": "StatefulPartitionedCall/StatefulPartitionedCall/predict/MobilenetV3/expanded_conv_7/depthwise/depthwise_bn_offset", "shape": [200], "dtype": "float32"}, {"name": "StatefulPartitionedCall/StatefulPartitionedCall/predict/MobilenetV3/expanded_conv_7/project/Conv2D_weights", "shape": [1, 1, 200, 80], "dtype": "float32"}, {"name": "StatefulPartitionedCall/StatefulPartitionedCall/predict/MobilenetV3/expanded_conv_7/project/Conv2D_bn_offset", "shape": [80], "dtype": "float32"}, {"name": "StatefulPartitionedCall/StatefulPartitionedCall/predict/MobilenetV3/expanded_conv_8/expand/Conv2D_weights", "shape": [1, 1, 80, 184], "dtype": "float32"}, {"name": "StatefulPartitionedCall/StatefulPartitionedCall/predict/MobilenetV3/expanded_conv_8/expand/Conv2D_bn_offset", "shape": [184], "dtype": "float32"}, {"name": "StatefulPartitionedCall/StatefulPartitionedCall/predict/MobilenetV3/expanded_conv_8/depthwise/depthwise_weights", "shape": [3, 3, 184, 1], "dtype": "float32"}, {"name": "StatefulPartitionedCall/StatefulPartitionedCall/predict/MobilenetV3/expanded_conv_8/depthwise/depthwise_bn_offset", "shape": [184], "dtype": "float32"}, {"name": "StatefulPartitionedCall/StatefulPartitionedCall/predict/MobilenetV3/expanded_conv_8/project/Conv2D_weights", "shape": [1, 1, 184, 80], "dtype": "float32"}, {"name": "StatefulPartitionedCall/StatefulPartitionedCall/predict/MobilenetV3/expanded_conv_8/project/Conv2D_bn_offset", "shape": [80], "dtype": "float32"}, {"name": "StatefulPartitionedCall/StatefulPartitionedCall/predict/MobilenetV3/expanded_conv_9/expand/Conv2D_weights", "shape": [1, 1, 80, 184], "dtype": "float32"}, {"name": "StatefulPartitionedCall/StatefulPartitionedCall/predict/MobilenetV3/expanded_conv_9/expand/Conv2D_bn_offset", "shape": [184], "dtype": "float32"}, {"name": "StatefulPartitionedCall/StatefulPartitionedCall/predict/MobilenetV3/expanded_conv_9/depthwise/depthwise_weights", "shape": [3, 3, 184, 1], "dtype": "float32"}, {"name": "StatefulPartitionedCall/StatefulPartitionedCall/predict/MobilenetV3/expanded_conv_9/depthwise/depthwise_bn_offset", "shape": [184], "dtype": "float32"}, {"name": "StatefulPartitionedCall/StatefulPartitionedCall/predict/MobilenetV3/expanded_conv_9/project/Conv2D_weights", "shape": [1, 1, 184, 80], "dtype": "float32"}, {"name": "StatefulPartitionedCall/StatefulPartitionedCall/predict/MobilenetV3/expanded_conv_9/project/Conv2D_bn_offset", "shape": [80], "dtype": "float32"}, {"name": "StatefulPartitionedCall/StatefulPartitionedCall/predict/MobilenetV3/expanded_conv_10/expand/Conv2D_weights", "shape": [1, 1, 80, 480], "dtype": "float32"}, {"name": "StatefulPartitionedCall/StatefulPartitionedCall/predict/MobilenetV3/expanded_conv_10/expand/Conv2D_bn_offset", "shape": [480], "dtype": "float32"}, {"name": "StatefulPartitionedCall/StatefulPartitionedCall/predict/MobilenetV3/expanded_conv_10/depthwise/depthwise_weights", "shape": [3, 3, 480, 1], "dtype": "float32"}, {"name": "StatefulPartitionedCall/StatefulPartitionedCall/predict/MobilenetV3/expanded_conv_10/depthwise/depthwise_bn_offset", "shape": [480], "dtype": "float32"}, {"name": "StatefulPartitionedCall/StatefulPartitionedCall/predict/MobilenetV3/expanded_conv_14/project/Conv2D_weights", "shape": [1, 1, 960, 160], "dtype": "float32"}, {"name": "StatefulPartitionedCall/StatefulPartitionedCall/predict/MobilenetV3/expanded_conv_10/project/Conv2D_weights", "shape": [1, 1, 480, 112], "dtype": "float32"}, {"name": "StatefulPartitionedCall/StatefulPartitionedCall/predict/MobilenetV3/expanded_conv_10/project/Conv2D_bn_offset", "shape": [112], "dtype": "float32"}, {"name": "StatefulPartitionedCall/StatefulPartitionedCall/predict/MobilenetV3/expanded_conv_11/expand/Conv2D_weights", "shape": [1, 1, 112, 672], "dtype": "float32"}, {"name": "StatefulPartitionedCall/StatefulPartitionedCall/predict/MobilenetV3/expanded_conv_14/project/Conv2D_bn_offset", "shape": [160], "dtype": "float32"}, {"name": "StatefulPartitionedCall/StatefulPartitionedCall/predict/MobilenetV3/expanded_conv_11/expand/Conv2D_bn_offset", "shape": [672], "dtype": "float32"}, {"name": "StatefulPartitionedCall/StatefulPartitionedCall/predict/MobilenetV3/expanded_conv_11/depthwise/depthwise_weights", "shape": [3, 3, 672, 1], "dtype": "float32"}, {"name": "StatefulPartitionedCall/StatefulPartitionedCall/predict/MobilenetV3/expanded_conv_11/depthwise/depthwise_bn_offset", "shape": [672], "dtype": "float32"}, {"name": "StatefulPartitionedCall/StatefulPartitionedCall/predict/MobilenetV3/Conv_1/Conv2D_weights", "shape": [1, 1, 160, 960], "dtype": "float32"}, {"name": "StatefulPartitionedCall/StatefulPartitionedCall/predict/MobilenetV3/expanded_conv_11/project/Conv2D_weights", "shape": [1, 1, 672, 112], "dtype": "float32"}, {"name": "StatefulPartitionedCall/StatefulPartitionedCall/predict/MobilenetV3/expanded_conv_11/project/Conv2D_bn_offset", "shape": [112], "dtype": "float32"}, {"name": "StatefulPartitionedCall/StatefulPartitionedCall/predict/MobilenetV3/expanded_conv_12/expand/Conv2D_weights", "shape": [1, 1, 112, 672], "dtype": "float32"}, {"name": "StatefulPartitionedCall/StatefulPartitionedCall/predict/MobilenetV3/Conv_1/Conv2D_bn_offset", "shape": [960], "dtype": "float32"}, {"name": "StatefulPartitionedCall/StatefulPartitionedCall/predict/MobilenetV3/expanded_conv_12/expand/Conv2D_bn_offset", "shape": [672], "dtype": "float32"}, {"name": "StatefulPartitionedCall/StatefulPartitionedCall/predict/MobilenetV3/expanded_conv_12/depthwise/depthwise_weights", "shape": [5, 5, 672, 1], "dtype": "float32"}, {"name": "StatefulPartitionedCall/StatefulPartitionedCall/predict/MobilenetV3/expanded_conv_12/depthwise/depthwise_bn_offset", "shape": [672], "dtype": "float32"}, {"name": "StatefulPartitionedCall/StatefulPartitionedCall/predict/MobilenetV3/expanded_conv_12/project/Conv2D_weights", "shape": [1, 1, 672, 160], "dtype": "float32"}, {"name": "StatefulPartitionedCall/StatefulPartitionedCall/predict/MobilenetV3/expanded_conv_12/project/Conv2D_bn_offset", "shape": [160], "dtype": "float32"}, {"name": "StatefulPartitionedCall/StatefulPartitionedCall/predict/MobilenetV3/expanded_conv_13/expand/Conv2D_weights", "shape": [1, 1, 160, 960], "dtype": "float32"}, {"name": "StatefulPartitionedCall/StatefulPartitionedCall/predict/MobilenetV3/expanded_conv_13/expand/Conv2D_bn_offset", "shape": [960], "dtype": "float32"}, {"name": "StatefulPartitionedCall/StatefulPartitionedCall/predict/MobilenetV3/expanded_conv_13/depthwise/depthwise_weights", "shape": [5, 5, 960, 1], "dtype": "float32"}, {"name": "StatefulPartitionedCall/StatefulPartitionedCall/predict/MobilenetV3/expanded_conv_13/depthwise/depthwise_bn_offset", "shape": [960], "dtype": "float32"}, {"name": "StatefulPartitionedCall/StatefulPartitionedCall/predict/MobilenetV3/Conv_2/hard_swish/mul_1/y", "shape": [], "dtype": "float32"}, {"name": "StatefulPartitionedCall/StatefulPartitionedCall/predict/MobilenetV3/Conv_1/hard_swish/mul_1/y", "shape": [], "dtype": "float32"}, {"name": "StatefulPartitionedCall/StatefulPartitionedCall/predict/MobilenetV3/expanded_conv_14/squeeze_excite/Conv_1/mul/y", "shape": [], "dtype": "float32"}, {"name": "StatefulPartitionedCall/StatefulPartitionedCall/predict/MobilenetV3/expanded_conv_14/squeeze_excite/Mean/reduction_indices", "shape": [2], "dtype": "int32"}, {"name": "Func/StatefulPartitionedCall/StatefulPartitionedCall/input/_520", "shape": [1, 1, 960, 240], "dtype": "float32"}, {"name": "Func/StatefulPartitionedCall/StatefulPartitionedCall/input/_521", "shape": [240], "dtype": "float32"}, {"name": "Func/StatefulPartitionedCall/StatefulPartitionedCall/input/_522", "shape": [1, 1, 240, 960], "dtype": "float32"}, {"name": "Func/StatefulPartitionedCall/StatefulPartitionedCall/input/_523", "shape": [960], "dtype": "float32"}, {"name": "StatefulPartitionedCall/StatefulPartitionedCall/predict/MobilenetV3/expanded_conv_14/squeeze_excite/Conv_1/add/y", "shape": [], "dtype": "float32"}, {"name": "StatefulPartitionedCall/StatefulPartitionedCall/predict/MobilenetV3/expanded_conv_14/depthwise/hard_swish/mul_1/y", "shape": [], "dtype": "float32"}, {"name": "StatefulPartitionedCall/StatefulPartitionedCall/predict/MobilenetV3/expanded_conv_14/expand/hard_swish/mul_1/y", "shape": [], "dtype": "float32"}, {"name": "StatefulPartitionedCall/StatefulPartitionedCall/predict/MobilenetV3/expanded_conv_14/expand/hard_swish/add/y", "shape": [], "dtype": "float32"}, {"name": "StatefulPartitionedCall/StatefulPartitionedCall/predict/MobilenetV3/expanded_conv_14/depthwise/hard_swish/add/y", "shape": [], "dtype": "float32"}, {"name": "StatefulPartitionedCall/StatefulPartitionedCall/predict/MobilenetV3/expanded_conv_13/squeeze_excite/Conv_1/mul/y", "shape": [], "dtype": "float32"}, {"name": "StatefulPartitionedCall/StatefulPartitionedCall/predict/MobilenetV3/expanded_conv_13/squeeze_excite/Mean/reduction_indices", "shape": [2], "dtype": "int32"}, {"name": "Func/StatefulPartitionedCall/StatefulPartitionedCall/input/_501", "shape": [1, 1, 960, 240], "dtype": "float32"}, {"name": "Func/StatefulPartitionedCall/StatefulPartitionedCall/input/_502", "shape": [240], "dtype": "float32"}, {"name": "Func/StatefulPartitionedCall/StatefulPartitionedCall/input/_503", "shape": [1, 1, 240, 960], "dtype": "float32"}, {"name": "Func/StatefulPartitionedCall/StatefulPartitionedCall/input/_504", "shape": [960], "dtype": "float32"}, {"name": "StatefulPartitionedCall/StatefulPartitionedCall/predict/MobilenetV3/expanded_conv_13/squeeze_excite/Conv_1/add/y", "shape": [], "dtype": "float32"}, {"name": "StatefulPartitionedCall/StatefulPartitionedCall/predict/MobilenetV3/expanded_conv_13/depthwise/hard_swish/mul_1/y", "shape": [], "dtype": "float32"}, {"name": "StatefulPartitionedCall/StatefulPartitionedCall/predict/MobilenetV3/expanded_conv_13/expand/hard_swish/mul_1/y", "shape": [], "dtype": "float32"}, {"name": "StatefulPartitionedCall/StatefulPartitionedCall/predict/MobilenetV3/expanded_conv_13/expand/hard_swish/add/y", "shape": [], "dtype": "float32"}, {"name": "StatefulPartitionedCall/StatefulPartitionedCall/predict/MobilenetV3/expanded_conv_13/depthwise/hard_swish/add/y", "shape": [], "dtype": "float32"}, {"name": "StatefulPartitionedCall/StatefulPartitionedCall/predict/MobilenetV3/expanded_conv_12/squeeze_excite/Conv_1/mul/y", "shape": [], "dtype": "float32"}, {"name": "StatefulPartitionedCall/StatefulPartitionedCall/predict/MobilenetV3/expanded_conv_12/squeeze_excite/Mean/reduction_indices", "shape": [2], "dtype": "int32"}, {"name": "Func/StatefulPartitionedCall/StatefulPartitionedCall/input/_482", "shape": [1, 1, 672, 168], "dtype": "float32"}, {"name": "Func/StatefulPartitionedCall/StatefulPartitionedCall/input/_483", "shape": [168], "dtype": "float32"}, {"name": "Func/StatefulPartitionedCall/StatefulPartitionedCall/input/_484", "shape": [1, 1, 168, 672], "dtype": "float32"}, {"name": "Func/StatefulPartitionedCall/StatefulPartitionedCall/input/_485", "shape": [672], "dtype": "float32"}, {"name": "StatefulPartitionedCall/StatefulPartitionedCall/predict/MobilenetV3/expanded_conv_12/squeeze_excite/Conv_1/add/y", "shape": [], "dtype": "float32"}, {"name": "StatefulPartitionedCall/StatefulPartitionedCall/predict/MobilenetV3/expanded_conv_12/depthwise/hard_swish/mul_1/y", "shape": [], "dtype": "float32"}, {"name": "StatefulPartitionedCall/StatefulPartitionedCall/predict/MobilenetV3/expanded_conv_12/expand/hard_swish/mul_1/y", "shape": [], "dtype": "float32"}, {"name": "StatefulPartitionedCall/StatefulPartitionedCall/predict/MobilenetV3/expanded_conv_11/squeeze_excite/Conv_1/mul/y", "shape": [], "dtype": "float32"}, {"name": "StatefulPartitionedCall/StatefulPartitionedCall/predict/MobilenetV3/expanded_conv_11/squeeze_excite/Mean/reduction_indices", "shape": [2], "dtype": "int32"}, {"name": "Func/StatefulPartitionedCall/StatefulPartitionedCall/input/_463", "shape": [1, 1, 672, 168], "dtype": "float32"}, {"name": "Func/StatefulPartitionedCall/StatefulPartitionedCall/input/_464", "shape": [168], "dtype": "float32"}, {"name": "Func/StatefulPartitionedCall/StatefulPartitionedCall/input/_465", "shape": [1, 1, 168, 672], "dtype": "float32"}, {"name": "Func/StatefulPartitionedCall/StatefulPartitionedCall/input/_466", "shape": [672], "dtype": "float32"}, {"name": "StatefulPartitionedCall/StatefulPartitionedCall/predict/MobilenetV3/expanded_conv_11/squeeze_excite/Conv_1/add/y", "shape": [], "dtype": "float32"}, {"name": "StatefulPartitionedCall/StatefulPartitionedCall/predict/MobilenetV3/expanded_conv_11/depthwise/hard_swish/mul_1/y", "shape": [], "dtype": "float32"}, {"name": "StatefulPartitionedCall/StatefulPartitionedCall/predict/MobilenetV3/expanded_conv_11/expand/hard_swish/mul_1/y", "shape": [], "dtype": "float32"}, {"name": "StatefulPartitionedCall/StatefulPartitionedCall/predict/MobilenetV3/expanded_conv_11/expand/hard_swish/add/y", "shape": [], "dtype": "float32"}, {"name": "StatefulPartitionedCall/StatefulPartitionedCall/predict/MobilenetV3/expanded_conv_11/depthwise/hard_swish/add/y", "shape": [], "dtype": "float32"}, {"name": "StatefulPartitionedCall/StatefulPartitionedCall/predict/MobilenetV3/expanded_conv_10/squeeze_excite/Conv_1/mul/y", "shape": [], "dtype": "float32"}, {"name": "StatefulPartitionedCall/StatefulPartitionedCall/predict/MobilenetV3/expanded_conv_10/squeeze_excite/Mean/reduction_indices", "shape": [2], "dtype": "int32"}, {"name": "Func/StatefulPartitionedCall/StatefulPartitionedCall/input/_444", "shape": [1, 1, 480, 120], "dtype": "float32"}, {"name": "Func/StatefulPartitionedCall/StatefulPartitionedCall/input/_445", "shape": [120], "dtype": "float32"}, {"name": "Func/StatefulPartitionedCall/StatefulPartitionedCall/input/_446", "shape": [1, 1, 120, 480], "dtype": "float32"}, {"name": "Func/StatefulPartitionedCall/StatefulPartitionedCall/input/_447", "shape": [480], "dtype": "float32"}, {"name": "StatefulPartitionedCall/StatefulPartitionedCall/predict/MobilenetV3/expanded_conv_10/squeeze_excite/Conv_1/add/y", "shape": [], "dtype": "float32"}, {"name": "StatefulPartitionedCall/StatefulPartitionedCall/predict/MobilenetV3/expanded_conv_10/depthwise/hard_swish/mul_1/y", "shape": [], "dtype": "float32"}, {"name": "StatefulPartitionedCall/StatefulPartitionedCall/predict/MobilenetV3/expanded_conv_10/expand/hard_swish/mul_1/y", "shape": [], "dtype": "float32"}, {"name": "StatefulPartitionedCall/StatefulPartitionedCall/predict/MobilenetV3/expanded_conv_9/depthwise/hard_swish/mul_1/y", "shape": [], "dtype": "float32"}, {"name": "StatefulPartitionedCall/StatefulPartitionedCall/predict/MobilenetV3/expanded_conv_9/expand/hard_swish/mul_1/y", "shape": [], "dtype": "float32"}, {"name": "StatefulPartitionedCall/StatefulPartitionedCall/predict/MobilenetV3/expanded_conv_9/expand/hard_swish/add/y", "shape": [], "dtype": "float32"}, {"name": "StatefulPartitionedCall/StatefulPartitionedCall/predict/MobilenetV3/expanded_conv_9/depthwise/hard_swish/add/y", "shape": [], "dtype": "float32"}, {"name": "StatefulPartitionedCall/StatefulPartitionedCall/predict/MobilenetV3/expanded_conv_8/depthwise/hard_swish/mul_1/y", "shape": [], "dtype": "float32"}, {"name": "StatefulPartitionedCall/StatefulPartitionedCall/predict/MobilenetV3/expanded_conv_8/expand/hard_swish/mul_1/y", "shape": [], "dtype": "float32"}, {"name": "StatefulPartitionedCall/StatefulPartitionedCall/predict/MobilenetV3/expanded_conv_8/expand/hard_swish/add/y", "shape": [], "dtype": "float32"}, {"name": "StatefulPartitionedCall/StatefulPartitionedCall/predict/MobilenetV3/expanded_conv_8/depthwise/hard_swish/add/y", "shape": [], "dtype": "float32"}, {"name": "StatefulPartitionedCall/StatefulPartitionedCall/predict/MobilenetV3/expanded_conv_7/depthwise/hard_swish/mul_1/y", "shape": [], "dtype": "float32"}, {"name": "StatefulPartitionedCall/StatefulPartitionedCall/predict/MobilenetV3/expanded_conv_7/expand/hard_swish/mul_1/y", "shape": [], "dtype": "float32"}, {"name": "StatefulPartitionedCall/StatefulPartitionedCall/predict/MobilenetV3/expanded_conv_7/expand/hard_swish/add/y", "shape": [], "dtype": "float32"}, {"name": "StatefulPartitionedCall/StatefulPartitionedCall/predict/MobilenetV3/expanded_conv_7/depthwise/hard_swish/add/y", "shape": [], "dtype": "float32"}, {"name": "StatefulPartitionedCall/StatefulPartitionedCall/predict/MobilenetV3/expanded_conv_6/depthwise/hard_swish/mul_1/y", "shape": [], "dtype": "float32"}, {"name": "StatefulPartitionedCall/StatefulPartitionedCall/predict/MobilenetV3/expanded_conv_6/expand/hard_swish/mul_1/y", "shape": [], "dtype": "float32"}, {"name": "StatefulPartitionedCall/StatefulPartitionedCall/predict/MobilenetV3/expanded_conv_5/squeeze_excite/Conv_1/mul/y", "shape": [], "dtype": "float32"}, {"name": "StatefulPartitionedCall/StatefulPartitionedCall/predict/MobilenetV3/expanded_conv_5/squeeze_excite/Mean/reduction_indices", "shape": [2], "dtype": "int32"}, {"name": "Func/StatefulPartitionedCall/StatefulPartitionedCall/input/_365", "shape": [1, 1, 120, 32], "dtype": "float32"}, {"name": "Func/StatefulPartitionedCall/StatefulPartitionedCall/input/_366", "shape": [32], "dtype": "float32"}, {"name": "Func/StatefulPartitionedCall/StatefulPartitionedCall/input/_367", "shape": [1, 1, 32, 120], "dtype": "float32"}, {"name": "Func/StatefulPartitionedCall/StatefulPartitionedCall/input/_368", "shape": [120], "dtype": "float32"}, {"name": "StatefulPartitionedCall/StatefulPartitionedCall/predict/MobilenetV3/expanded_conv_5/squeeze_excite/Conv_1/add/y", "shape": [], "dtype": "float32"}, {"name": "StatefulPartitionedCall/StatefulPartitionedCall/predict/MobilenetV3/expanded_conv_4/squeeze_excite/Conv_1/mul/y", "shape": [], "dtype": "float32"}, {"name": "StatefulPartitionedCall/StatefulPartitionedCall/predict/MobilenetV3/expanded_conv_4/squeeze_excite/Mean/reduction_indices", "shape": [2], "dtype": "int32"}, {"name": "Func/StatefulPartitionedCall/StatefulPartitionedCall/input/_346", "shape": [1, 1, 120, 32], "dtype": "float32"}, {"name": "Func/StatefulPartitionedCall/StatefulPartitionedCall/input/_347", "shape": [32], "dtype": "float32"}, {"name": "Func/StatefulPartitionedCall/StatefulPartitionedCall/input/_348", "shape": [1, 1, 32, 120], "dtype": "float32"}, {"name": "Func/StatefulPartitionedCall/StatefulPartitionedCall/input/_349", "shape": [120], "dtype": "float32"}, {"name": "StatefulPartitionedCall/StatefulPartitionedCall/predict/MobilenetV3/expanded_conv_4/squeeze_excite/Conv_1/add/y", "shape": [], "dtype": "float32"}, {"name": "StatefulPartitionedCall/StatefulPartitionedCall/predict/MobilenetV3/expanded_conv_3/squeeze_excite/Conv_1/mul/y", "shape": [], "dtype": "float32"}, {"name": "StatefulPartitionedCall/StatefulPartitionedCall/predict/MobilenetV3/expanded_conv_3/squeeze_excite/Mean/reduction_indices", "shape": [2], "dtype": "int32"}, {"name": "Func/StatefulPartitionedCall/StatefulPartitionedCall/input/_327", "shape": [1, 1, 72, 24], "dtype": "float32"}, {"name": "Func/StatefulPartitionedCall/StatefulPartitionedCall/input/_328", "shape": [24], "dtype": "float32"}, {"name": "Func/StatefulPartitionedCall/StatefulPartitionedCall/input/_329", "shape": [1, 1, 24, 72], "dtype": "float32"}, {"name": "Func/StatefulPartitionedCall/StatefulPartitionedCall/input/_330", "shape": [72], "dtype": "float32"}, {"name": "StatefulPartitionedCall/StatefulPartitionedCall/predict/MobilenetV3/expanded_conv_3/squeeze_excite/Conv_1/add/y", "shape": [], "dtype": "float32"}, {"name": "StatefulPartitionedCall/StatefulPartitionedCall/predict/MobilenetV3/Conv/hard_swish/mul_1/y", "shape": [], "dtype": "float32"}, {"name": "StatefulPartitionedCall/StatefulPartitionedCall/predict/hub_input/Mul/y", "shape": [], "dtype": "float32"}, {"name": "StatefulPartitionedCall/StatefulPartitionedCall/predict/hub_input/Sub/y", "shape": [], "dtype": "float32"}, {"name": "StatefulPartitionedCall/StatefulPartitionedCall/predict/MobilenetV3/Conv/hard_swish/add/y", "shape": [], "dtype": "float32"}, {"name": "StatefulPartitionedCall/StatefulPartitionedCall/predict/MobilenetV3/expanded_conv_6/expand/hard_swish/add/y", "shape": [], "dtype": "float32"}, {"name": "StatefulPartitionedCall/StatefulPartitionedCall/predict/MobilenetV3/expanded_conv_6/depthwise/hard_swish/add/y", "shape": [], "dtype": "float32"}, {"name": "StatefulPartitionedCall/StatefulPartitionedCall/predict/MobilenetV3/expanded_conv_10/expand/hard_swish/add/y", "shape": [], "dtype": "float32"}, {"name": "StatefulPartitionedCall/StatefulPartitionedCall/predict/MobilenetV3/expanded_conv_10/depthwise/hard_swish/add/y", "shape": [], "dtype": "float32"}, {"name": "StatefulPartitionedCall/StatefulPartitionedCall/predict/MobilenetV3/expanded_conv_12/expand/hard_swish/add/y", "shape": [], "dtype": "float32"}, {"name": "StatefulPartitionedCall/StatefulPartitionedCall/predict/MobilenetV3/expanded_conv_12/depthwise/hard_swish/add/y", "shape": [], "dtype": "float32"}, {"name": "StatefulPartitionedCall/StatefulPartitionedCall/predict/MobilenetV3/Conv_1/hard_swish/add/y", "shape": [], "dtype": "float32"}, {"name": "Func/StatefulPartitionedCall/StatefulPartitionedCall/input/_534", "shape": [1, 1, 960, 1280], "dtype": "float32"}, {"name": "Func/StatefulPartitionedCall/StatefulPartitionedCall/input/_535", "shape": [1280], "dtype": "float32"}, {"name": "StatefulPartitionedCall/StatefulPartitionedCall/predict/MobilenetV3/Conv_2/hard_swish/add/y", "shape": [], "dtype": "float32"}, {"name": "Func/StatefulPartitionedCall/StatefulPartitionedCall/input/_536", "shape": [1, 1, 1280, 1001], "dtype": "float32"}, {"name": "Func/StatefulPartitionedCall/StatefulPartitionedCall/input/_537", "shape": [1001], "dtype": "float32"}]}]}